models/model/best.pt (torch, 100674 bytes, 12 tensors)

weight_ih_l0 f8 [120, 5]
000000 be 7c 6f a0 50 2e c1 bf b3 64 cf 7f f3 52 a7 3f
       -0.1342259200455142 0.04555474219496016
000010 e5 63 16 24 ea d5 79 3f 3f 44 88 46 66 d8 c4 bf
       0.006307520497466056 -0.16285398906669177
000020 fe 0f 96 b9 68 8a d5 3f 46 18 e7 d0 10 61 c4 3f
       0.33657281993532695 0.1592122097046646
000030 7a c1 cd fc 66 d1 8c bf 36 df 31 f8 28 8f b4 3f
       -0.014071278181035696 0.08030944880908639
000040 72 70 7d 74 dc f0 b2 bf 72 f0 9b a5 ab c4 cb 3f
       -0.07398774951929157 0.2169394072187774
000050 fe b7 63 52 7a ec bd bf 85 f6 23 d5 c5 88 d0 3f
       -0.11688961516821902 0.2583479482126239
000060 0d ef b8 2d 03 e4 b7 3f 12 eb 9d 2f 56 92 a5 bf
       0.0933229433657596 -0.04213208514462087
000070 d4 19 75 4d ad 21 c0 3f b1 bb 8d 2f b0 8c c2 3f
       0.1260277393541417 0.14491846391635257
000080 77 c8 58 9c 07 7e c8 3f be 9a 69 05 51 b4 30 bf
       0.19134612211343313 -0.0002548883252643622
000090 6f b0 06 33 22 cf b7 3f f9 df 69 17 a5 6e ce 3f
       0.09300435777430648 0.2377516140293208
0000a0 2e 72 ba 88 c4 59 ca bf 5a 1b 4e 36 c9 18 c2 bf
       -0.20586449314295535 -0.14138140822998474
0000b0 4e 11 f8 37 ec b8 97 bf ac 5c 92 00 46 52 d4 bf
       -0.02316636172874214 -0.31752157264549896
0000c0 51 21 aa e7 b0 9e 8b bf ad 56 47 65 66 50 d5 bf
       -0.013486272878495827 -0.33303222551817663
0000d0 91 ad a0 9e c3 65 c0 bf 46 e2 f4 e1 fd 0b ce bf
       -0.12810559506884237 -0.23474095852886218
0000e0 86 c7 93 55 67 27 ca bf 7b 24 7d 1b b0 18 cb bf
       -0.2043275039537173 -0.21169091551044858
0000f0 73 63 55 c5 24 35 b1 bf ee 69 1a 70 10 a4 bf bf
       -0.06721715753282158 -0.1235971711816217
000100 47 bb 7e 2d 37 fa ac bf c7 8c dc 99 b3 25 c9 3f
       -0.05659649305686414 0.1964630605008095
000110 ce 4f b2 63 bc 32 c4 bf 5e 8a 1e 76 da 30 c5 3f
       -0.15779833667750015 0.1655533863787068
000120 4c dc d7 96 eb dc d3 3f 74 d8 b0 f7 1e 58 bd bf
       0.3103589032247711 -0.11462586924685231
000130 a2 ef 6e ab 84 47 ab bf ff b0 aa 1c 43 e8 d3 3f
       -0.05328001587574184 0.31105115699280356
000140 e1 1c ce 5b d8 d8 c5 bf 7d 57 40 f4 4c bf ae bf
       -0.17068008883163713 -0.06005325776656798
000150 a6 4c df 3f 4f ac c1 bf d7 8d a8 eb c6 d6 c3 bf
       -0.13807097071421487 -0.15499197489508162
000160 92 f9 89 8f 7f 32 b7 3f 0b 4a 92 cf cb 77 ba 3f
       0.09061429266328094 0.10339044397031942
000170 db ff 18 f1 9e 28 81 bf 0c fc cb d9 49 f7 b8 bf
       -0.00837825940391206 -0.09752332274727865
000180 e5 4c ec 07 3b 3d 99 3f cd d3 9c dd 49 6a 8a bf
       0.024647638662895672 -0.012898041797237437
000190 74 2c fd 4c 68 a6 c5 bf 25 8a 8a 35 cf c1 ab bf
       -0.1691408515856413 -0.05421302345827809
0001a0 e3 f2 e0 6f c4 b0 92 3f b9 b8 7d 91 82 9f b3 bf
       0.018252438858541786 -0.07665267993954474
0001b0 d1 05 2c 1d 42 ea ce bf fc cc fa 0d 33 b2 ad bf
       -0.24152399467861455 -0.05800017877245442
0001c0 3e 57 ba 92 1c 65 73 bf 77 0e da 2b ad 55 b8 bf
       -0.004735099424257259 -0.09505731888389755
0001d0 40 0f 0c 50 25 ca c1 bf 4a 64 37 64 57 c0 b8 bf
       -0.1389814987998026 -0.09668489643753833
0001e0 c0 d0 5f bd 82 d8 96 bf 86 0a f6 eb 0b eb bb 3f
       -0.02231029778336402 0.10905527601975437
0001f0 c2 ee 82 dc f9 9b a8 bf 68 7e ac 04 62 bc ad 3f
       -0.04806500260153036 0.05807787234357137
000200 49 b1 02 34 16 9c d6 3f f3 25 39 5b 8f 89 ab bf
       0.35327677802230945 -0.05378387440266499
000210 ed 94 7e d5 b3 7f a8 bf e0 27 5d c3 b3 0a b7 3f
       -0.04784929257520241 0.09000705260873998
000220 b1 ee f6 29 48 04 c7 3f 36 5a 18 32 1d 60 cb 3f
       0.17981817292262783 0.21387066789675807
000230 12 ff 03 da 8d 8c ca 3f 97 cf be 2d db d5 ca 3f
       0.20741437096875665 0.20965137227687755
000240 1d d4 9a 02 53 2e a9 bf a8 2c 99 f4 c1 12 bf bf
       -0.0491815510444342 -0.12137996884955504
000250 ae d5 5b e2 8d c3 cc 3f 12 e0 cc 34 4e 39 b1 bf
       0.2247178416506989 -0.06728066243238143
000260 d8 b8 c4 9c b8 07 d2 3f b2 e7 f4 ca 45 26 ca 3f
       0.28172126111429696 0.20429298791878875
000270 99 1f 60 47 c2 e5 c9 3f 35 65 d5 16 79 a8 ce 3f
       0.20232418522959675 0.23951638808174783
000280 d1 9b 46 4e 95 7b d1 bf 5a f4 f6 f5 c4 20 b7 bf
       -0.27316792148706975 -0.09034377102848748
000290 44 1b b6 32 63 88 d0 bf 62 f6 b5 86 b6 b6 77 3f
       -0.2583244319179594 0.005789483063720265
0002a0 af 96 44 87 14 38 bf bf e6 17 58 a4 3b dc bc bf
       -0.12194946577491338 -0.11273548853213775
0002b0 fa c8 6f 5b eb 98 c3 bf a9 e7 98 16 38 d4 c2 bf
       -0.15310422863655743 -0.1471014128053956
0002c0 54 84 c7 e4 b7 73 c0 bf 85 18 e9 9a 2d 94 cd 3f
       -0.12853144331805544 0.23108453811636678
0002d0 f6 9b c2 c6 0e f9 b0 bf 21 12 1b 72 d1 0f d9 3f
       -0.06630031921905286 0.3915904630960388
0002e0 77 4e 4c 27 fb f3 d0 3f 55 55 41 4f 82 68 9c 3f
       0.26489142263128634 0.02774242027984049
0002f0 ee 6b ac e9 33 47 db 3f b5 4a 6b f9 d1 74 d8 bf
       0.4262208730667102 -0.3821301398976787
000300 01 98 7e f4 ef f2 d6 bf 82 2a 3f b7 2e 40 cb bf
       -0.3585777175561589 -0.21289619395823328
000310 28 6d 6e b7 fa 51 a0 bf 8e 09 36 59 b5 09 cd bf
       -0.03187545289184818 -0.22685877662668158
000320 9d 25 4c 6b 6e 40 bd bf c4 63 44 9b 58 34 ca 3f
       -0.11426439399305939 0.20472247678188016
000330 35 be 98 9f 5d f8 c0 bf a7 48 90 82 cb 5d bb bf
       -0.1325795201569108 -0.10689994752491093
000340 0e 6f 1c 3b dc ad c3 3f 68 87 19 3f 9b 59 a0 bf
       0.15374329458506292 -0.03193364281902583
000350 5c 01 b3 fd ac eb 98 3f 84 94 2f 03 78 e1 c5 3f
       0.024336531624386523 0.17094326167640272
000360 d2 e8 3f d2 f6 9d c1 3f 9c 3e 0f c2 9f 3c d8 3f
       0.13763318315597545 0.37870019866111604
000370 4f aa f4 38 13 44 c1 bf 5e 59 c2 c5 bb 16 bb 3f
       -0.13488998681107708 0.10581563547234427
000380 aa 30 1e d4 18 44 b6 3f 2a 8b 2c ee 04 f5 aa bf
       0.0869765775552788 -0.052650598596548484
000390 92 65 bc 4c a5 cf cd 3f c6 2b 41 d4 c7 e0 cf 3f
       0.23289934393760042 0.24904725898735885
0003a0 66 32 f6 f5 04 21 af 3f 81 c0 be 2e ca 81 b1 bf
       0.06079879286253202 -0.06838668481100464
0003b0 02 23 b8 39 d1 37 b3 3f 11 97 97 2c 47 f7 c5 3f
       0.07507045420801364 0.17160882642127054
0003c0 64 ed 39 91 3f 39 c0 bf dc e1 9a 58 b9 b5 b9 3f
       -0.12674707976462252 0.10042913830955719
0003d0 06 4f 0e bf 83 21 cb 3f 55 98 fd 9f de 85 b5 bf
       0.21196028546238938 -0.08407393842716833
0003e0 d6 c5 d6 75 a7 37 ad 3f 7e e2 c8 db 68 8a 93 bf
       0.05706523240531751 -0.01908267823657405
0003f0 2a 0b 46 0d b0 12 af 3f 2d 1d 3a 40 ad 43 c0 bf
       0.060689450855554064 -0.12706533084949836
000400 cb cb 71 a5 c2 f7 c9 bf ca 26 50 53 f9 88 ad 3f
       -0.2028735454401541 0.05768565313344494
000410 54 bb 82 06 f7 bc a1 bf 24 44 fe ec e7 50 cc bf
       -0.03464481310344661 -0.2212190539544575
000420 02 00 5d 52 6f ae 98 3f f8 e6 3d c7 ac ae c9 bf
       0.02410291614728522 -0.2006431553707484
000430 96 de 3f 90 ff 7b 4d bf 03 55 2a b1 f8 0f b5 3f
       -0.0008997915142563036 0.08227495503736652
000440 55 eb 20 d6 c8 2c c0 3f 49 a7 f2 37 10 b4 a1 bf
       0.12636671500680544 -0.03457689936597192
000450 e7 68 b1 52 0a c4 b8 3f 1c fc fc 07 5f e0 d3 3f
       0.09674133795616378 0.310569532204626
000460 63 67 32 59 51 10 cb bf 9d 10 ee 55 7f ed a4 bf
       -0.21143547873799226 -0.04087446140241122
000470 4b d2 56 04 38 0c d2 bf 74 c8 ac ef 08 c0 be bf
       -0.2819957773565746 -0.12011772014082728
000480 5c 69 34 00 3e 6b 93 3f 5c a1 97 0b e7 32 c7 3f
       0.018963783991332903 0.18124092165022432
000490 00 87 67 35 11 a5 a0 3f b8 c6 bd dd 63 da d5 3f
       0.03250936295422768 0.341454474014522
0004a0 40 79 37 80 5d b3 cb 3f 14 83 3c 9d 0a 4c d3 3f
       0.21641129265385395 0.3015162024985767
0004b0 7a 2b b3 bc 6c 47 ae bf 1b ff 7d 13 ff 59 ab 3f
       -0.05913867763009413 0.053420992974677804
0004c0 c1 f8 0e 96 65 d6 be 3f 8b 3a ec 72 0a bb c1 bf
       0.12045893586671054 -0.13852053271735473
0004d0 dd 42 a4 e0 d0 12 cd 3f 0e da 2e 9e 2d e2 bd 3f
       0.22713671654539427 0.11673245536699303
0004e0 d7 ba 03 d8 6f a8 c7 bf d3 b2 3c 4d a4 8b c3 bf
       -0.18482778594576274 -0.15269902964919044
0004f0 5e e4 84 8a 9f 7a ad 3f c3 54 4d 6b 1b 0c 80 3f
       0.05757616582781887 0.007835592472171254
000500 77 a3 69 c0 a3 3f b8 3f e7 8b 38 99 dc eb c5 3f
       0.09472106406759716 0.1712604282521106
000510 54 d1 51 b2 4b b6 c6 3f 0c ad 7e 3b 37 35 71 bf
       0.17743822295200096 -0.00420114112049964
000520 a4 2c 5f eb 81 45 d1 3f 59 a8 06 b7 0f 0a cf bf
       0.2698674009850015 -0.24249454914871896
000530 0c 02 61 86 e8 e6 b2 bf f8 70 a5 56 86 a6 bc bf
       -0.0738358810494974 -0.11191596618067823
000540 b7 cc 90 23 49 7b c6 bf 12 5e eb 5f 16 d4 87 bf
       -0.17563738094904632 -0.011634993364551458
000550 d5 6a 19 1e 7f 64 d6 bf 42 61 6b fd 7b b0 d2 bf
       -0.3498838228166908 -0.2920217490004867
000560 20 97 be aa 2b 13 bd bf 9f cc 77 ce 07 70 db bf
       -0.11357376974646316 -0.4287127987183314
000570 c1 3f 1b c8 6f 43 d5 bf 04 79 44 f2 89 b4 e1 bf
       -0.3322410062946766 -0.5532884341990045
000580 fe b1 be e1 58 3e e1 bf f6 eb 2b b4 5c a0 d7 bf
       -0.5388607415275712 -0.36916272730712707
000590 78 9d 5d aa 5a ec e1 bf 21 73 70 43 e7 bf e5 bf
       -0.5601018264250532 -0.6796757046864493
0005a0 5b 05 72 dc 35 05 bc 3f ce 07 0e 4b 7e ac d0 bf
       0.10945450431792862 -0.2605281575162025
0005b0 0c 09 b7 09 57 be ba 3f d9 0e 81 ce 70 30 ab bf
       0.10446685778791592 -0.0531039478378525
0005c0 c8 8e 3b 1c 7f fc d8 bf 0a 33 41 fa 6d cb cf 3f
       -0.3904111648282478 0.24839567870585483
0005d0 fa ce 68 41 89 8c d2 3f d6 99 6a d2 38 3b 78 bf
       0.2898276461375954 -0.005915853462886441
0005e0 e2 c5 ef 8d 89 a2 c8 3f 8b 2e c9 8c 00 42 d5 3f
       0.19246024542330448 0.3321534514295556
0005f0 55 a2 95 dc ab de b8 bf 99 7a 01 99 fa 77 c9 3f
       -0.09714769492496463 0.19897396536812975
000600 81 e0 c0 53 b9 1b aa 3f 4b 6f 28 13 c1 b7 cb bf
       0.050992766832167476 -0.21654523311087312
000610 95 e4 71 60 73 25 a9 bf b9 39 cd 33 50 66 70 3f
       -0.049113851092394224 0.004003823557310709
000620 9f 29 74 5a 70 5e bf bf f5 8b c5 05 3f 91 b8 bf
       -0.12253477295249703 -0.09596628085050425
000630 d2 d7 33 f5 06 a1 a2 bf 61 50 b8 d3 65 fa 89 bf
       -0.03638478987879491 -0.012684627078705714
000640 bd 7e 5d c1 cb 12 dd bf 99 28 e6 50 1d ef e5 bf
       -0.4542722118694476 -0.6854387836513239
000650 16 00 81 de 59 39 e0 bf e4 8b fe d2 1e b7 e0 bf
       -0.5070008607654042 -0.5223535653097966
000660 2e fc ad b0 5d 49 e3 bf ba 87 47 31 26 89 8c 3f
       -0.6027058077596672 0.013933466318977728
000670 01 1f 51 61 9c e0 c1 3f 86 21 fb 61 2b 49 bd 3f
       0.13966707946587323 0.11439772741426255
000680 60 c4 5e 03 37 0e 93 3f 98 b2 32 07 b6 5c cd 3f
       0.018608913021754936 0.2293918166300457
000690 17 76 0c 4c 1b 6d c2 bf 76 07 cb 38 62 9b 99 bf
       -0.14395467007936766 -0.025006804195761366
0006a0 46 b7 7f 9a 03 42 be bf 9d c6 a1 4f f0 a2 c5 bf
       -0.1181947948641354 -0.1690349949672524
0006b0 04 f4 7f 85 13 26 b4 3f 3f 5e 58 af b3 08 b2 bf
       0.07870599755547408 -0.0704452803696478
0006c0 33 87 e6 ae df b3 ad 3f 2f 40 23 b7 0a 19 b1 3f
       0.05801295290008426 0.06678835841307838
0006d0 7f 60 be 5e df ea 97 bf a5 bd 65 56 01 d0 a9 bf
       -0.023356905133909308 -0.050415078922806424
0006e0 14 f2 81 da 13 0f b2 bf 34 ff cf 30 e1 5b b5 bf
       -0.0705425651994534 -0.08343322221480493
0006f0 ea 38 f9 3d 40 5c cb 3f 1c 0b 4a 2d 84 1e a2 bf
       0.21375277544070254 -0.035389071014853196
000700 0f b8 fb 57 e0 71 af 3f 0a f9 0c 38 c5 cd c2 3f
       0.06141568254484763 0.146904613846296
000710 ce 9c f6 18 54 f4 a6 3f 8b 52 28 5d 34 59 a9 bf
       0.04483282856681968 -0.04950870167900686
000720 9f 8c 6d 37 f8 b8 cb 3f 3b 2f b7 2a fe 4b dc 3f
       0.2165823240894484 0.44213823481981124
000730 8e ae 16 9a c0 84 b6 bf 09 03 09 67 83 1f da bf
       -0.08796314012459502 -0.40817341863662243
000740 82 45 8c 36 18 3a d8 bf cf a3 99 9e 1f dd a5 bf
       -0.37854581191012227 -0.042702663526888444
000750 df fe 78 10 8f 18 d6 bf 50 5b 71 56 70 91 d0 bf
       -0.3452489529481521 -0.25887688104324
000760 90 a1 88 0a c0 79 98 3f 81 9c 29 9a c7 bd bc 3f
       0.02390194000523277 0.11227080835088722
000770 af 23 71 69 4b 27 ad 3f 4a ea c4 33 8a 7e a1 3f
       0.056940418835956456 0.03416854745815508
000780 a5 94 21 e9 b5 7b d6 bf bd 53 3d 6a d6 f5 40 bf
       -0.35130069510189293 -0.0005175873707040573
000790 a1 fa 16 7b 99 58 d0 bf 79 d7 e9 13 4d 21 c6 bf
       -0.2554076864288764 -0.17289126846634043
0007a0 c3 06 1c f9 07 0e a3 bf 30 5a 2c a4 90 3d d8 bf
       -0.037216424139854286 -0.37875762970489557
0007b0 4e 55 ba cd 5c 4b b1 bf fb 41 74 6c 3a bc c4 bf
       -0.06755619070675786 -0.16199426932918456
0007c0 97 ee e6 fc 73 96 d2 bf 50 38 af f1 aa 02 c0 bf
       -0.2904329271075112 -0.12508141327856714
0007d0 48 c8 f1 b1 95 54 b4 3f 24 7f a7 37 5b 6b b0 3f
       0.07941566080424523 0.06413812741038477
0007e0 f1 7e 5b 79 74 b6 bc bf 78 97 38 9e fd 35 a8 bf
       -0.11215904200389183 -0.0472869163170761
0007f0 8b 8d 3c 5e c7 1d d5 3f 52 eb 88 a2 ec 25 cc 3f
       0.3299425525931034 0.21990735946914214

weight_hh_l0 f8 [120, 30]
000000 b3 0b 52 83 c1 ee c0 bf 0e 3b 94 a9 f0 69 ca bf
       -0.1322862521375022 -0.20635803489900478
000010 2a df e6 02 8b c6 7d 3f db 99 98 e5 b8 c7 ba 3f
       0.007269423497227293 0.10461001973508337
000020 fe af 6c ae eb 04 b5 bf ff 0d 12 66 56 8c d2 3f
       -0.08210633285915489 0.28981552093338786
000030 91 70 62 07 06 c4 a0 3f 52 04 bf 64 0c 80 52 bf
       0.03274554100173178 -0.0011291619330082892
000040 18 a8 03 a0 6d 57 aa 3f aa be 5a 49 e7 99 be bf
       0.05144827440547334 -0.1195358804786745
000050 4b e3 65 a0 ca f9 c2 3f 7d 75 7f 52 28 3f c3 3f
       0.14824803192075317 0.15036491420952905
000060 19 af 69 a3 bf 2c b9 3f 73 6f 38 7d 8c 53 c5 bf
       0.09833905925341603 -0.16661220659522832
000070 a0 e3 75 a8 01 40 87 bf 48 14 19 a2 fc b6 c9 3f
       -0.01135255141592656 0.20089681544246418
000080 e8 05 e5 41 c6 0e 88 bf c7 a9 75 c3 3f 7b c2 3f
       -0.011746930013603454 0.14438626331259583
000090 63 25 68 4c c1 3b b5 bf 46 ec 24 7b 7f b3 b8 bf
       -0.08294304004097834 -0.09648892170382437
0000a0 f1 b1 8c e3 91 20 b7 bf 0c d2 70 cc f6 6d b6 bf
       -0.09034072690400997 -0.0876154183504882
0000b0 85 6a 11 4d ad d7 c4 bf 52 8f 32 8a f6 f7 b9 3f
       -0.1628319383915661 0.10143986581766498
0000c0 d6 35 96 0d 01 b4 ad bf 1b e5 2b 01 c2 7f ca 3f
       -0.058013947399654306 0.20702385956955358
0000d0 27 76 fe e7 b2 3e b6 bf 01 a8 90 35 93 8b 90 bf
       -0.08689420856395512 -0.016157436508514426
0000e0 e2 f1 60 e5 60 e8 53 bf b7 59 56 c5 15 cc b2 3f
       -0.0012150713205435417 0.07342659061246236
0000f0 83 01 ce 6d 33 bb cd 3f 01 79 40 b3 df bf a7 bf
       0.23227541791494496 -0.04638575614102259
000100 b4 f5 9e 31 81 74 d3 3f 5e be 0e 3e f0 65 62 3f
       0.30398588033480256 0.002245873664342742
000110 8b a7 24 cf c2 87 a4 bf fd 38 a4 b2 3d 5b d4 3f
       -0.0400982740269021 0.31806890912493185
000120 1a 9f fa e7 9e f2 c0 3f 1b 11 79 ce f7 49 be 3f
       0.13240419699763423 0.11831616202204424
000130 9b e3 a7 f5 4a 09 c6 3f d3 69 5d a2 0c d1 97 bf
       0.1721585940829556 -0.023258397493330762
000140 e5 55 d9 77 7f 07 cf 3f 1c d3 86 12 b1 e6 aa 3f
       0.24241631843567216 0.052541287910037066
000150 bb dd 30 d8 66 01 b4 bf d3 ab 55 41 1c 1a c8 bf
       -0.07814638879869211 -0.18829682531517608
000160 38 4c 32 eb 6d 73 c9 bf 6f 91 ce c3 0d 51 d4 3f
       -0.1988351248188296 0.31744712945717074
000170 76 b9 8f a3 4b b7 c4 bf a1 6a bb 33 7d 52 a4 bf
       -0.1618437336578144 -0.03969184166426954
000180 61 f6 b2 f3 c0 1f 80 3f 2e f4 6e f1 76 95 c9 bf
       0.00787306541166827 -0.19987379826298607
000190 8a 8b 24 3c 57 b2 cc bf 17 d5 c7 5f 3f 79 d0 bf
       -0.22419252812059326 -0.25740036347936396
0001a0 8b 23 c5 b1 e3 71 9c bf ff 2a 5e 07 c6 0b bb bf
       -0.027778203702186793 -0.10564840011481279
0001b0 81 94 a5 c7 aa ad d3 3f fc ab 9b e6 77 2e c6 bf
       0.3074747991252665 -0.173293101884468
0001c0 2a ef 29 e2 ff 6d cc 3f f5 a8 40 2b ed 0c a3 bf
       0.2221069197001893 -0.03720799592004368
0001d0 7f d5 4c 55 1a f2 d1 bf dd f0 5e fd 0c 86 c5 3f
       -0.28040178613749583 0.16815340396522674
0001e0 fd 4c f3 af 67 e8 ae bf fe d6 2f 33 15 dc 68 bf
       -0.06036685965377762 -0.003034631162786349
0001f0 57 6d 8c a8 ea cc 9d 3f 3e 40 9b 59 8e 9f bb 3f
       0.02910200742472332 0.1079033821836228
000200 8c 38 81 0e 0c 94 a2 3f c1 82 9d 0b cc eb ab bf
       0.036285759707071014 -0.05453336374080698
000210 e1 c3 62 39 bd 8e a7 bf 24 0e a6 af 3a ad 9f 3f
       -0.04601088834295531 0.030934254618399618
000220 06 c2 e1 5d 40 68 ba 3f bc b5 f0 57 c5 60 9a bf
       0.1031532506183411 -0.025759776585052782
000230 1a e9 f8 be eb 7b bd 3f fe 53 74 a5 b0 70 a5 3f
       0.11517213261041484 0.04187538165766823
000240 73 ba 38 f1 6a 1f c2 3f ba 29 5e 63 da 26 7f bf
       0.14158379343412583 -0.007605412558300656
000250 ef 7d 8a a7 9f 87 ac 3f 60 8b e1 a2 48 20 66 bf
       0.055722226335315976 -0.0027009409596287365
000260 92 31 cc ed ef 78 d3 bf 83 c7 18 65 d8 8c bb bf
       -0.30425642225670757 -0.10761787861045317
000270 92 b7 81 a9 b9 63 bb bf 04 71 cd 86 e1 e5 c1 bf
       -0.10699043644282671 -0.13982791025308228
000280 e5 5e 43 0f 85 b1 97 3f 03 e5 b1 06 9f c2 c5 3f
       0.02313812165888764 0.17000186755084465
000290 da 13 35 f0 e3 6b b4 bf 88 8f 40 47 74 2c c1 3f
       -0.07977127661167974 0.13416913489447446
0002a0 64 34 54 df b8 4b 7e 3f cd a8 19 6c 31 f9 bd 3f
       0.007396433027008962 0.11708363427320308
0002b0 41 f3 95 3a 2a cf c2 bf 95 e6 e1 75 30 86 b4 3f
       -0.14694717274314864 0.08017256620396503
0002c0 c9 b0 79 68 62 33 cd 3f ed db 8a fb 94 f1 c5 3f
       0.2281306276448787 0.17143499643654483
0002d0 d7 8e 11 a3 37 5c ba 3f c3 b4 e6 78 ac 17 c1 3f
       0.10296962481657644 0.13353496459368416
0002e0 b5 d1 79 91 fc 92 cb 3f 7d c0 c3 33 de 6a d1 bf
       0.21542317488969123 -0.27214770369665314
0002f0 ed 6a 31 8b ab e2 d5 bf ff 8a ec 62 4c 90 df 3f
       -0.3419598445231447 0.4931822744421623
000300 23 26 1a 10 5c 62 a3 3f c3 76 10 2c ed b3 d4 3f
       0.03785979935225849 0.3234818392100857
000310 f8 b2 a1 64 1d 93 af 3f b2 f3 2a 88 6d 31 cc bf
       0.06166927197850741 -0.22025841854875022
000320 d6 c6 63 fb 66 d6 da 3f e3 7b 20 43 88 f5 c2 bf
       0.4193360762575201 -0.14811805036239808
000330 53 35 04 9d 1c 09 a2 3f 03 54 36 33 5b 29 b7 bf
       0.035225767294927345 -0.09047479629801107
000340 67 00 91 45 86 5f b0 3f 7b 56 e6 4a 8a 19 bb 3f
       0.06395758818052998 0.10585846260650016
000350 32 ae de e0 a3 98 d0 bf 8d 3b 5f b7 5a a1 d0 bf
       -0.25931641540475703 -0.25984828860685455
000360 4f ed 9c ff 5c ee c3 bf 1c f2 72 f7 50 ee c6 bf
       -0.15571176987746546 -0.1791478355643371
000370 8d 44 b2 1c 51 e7 d0 bf ee 29 0e 8f 8c bb b2 bf
       -0.2641184597242237 -0.07317427151261999
000380 bd 90 37 79 98 76 91 3f 24 5d 57 73 df 55 b5 3f
       0.01705396880960629 0.08334156576107837
000390 da 7f cd 43 10 2d c6 3f 24 75 d6 4a b6 e2 c2 3f
       0.17325022993736533 0.14754370359597957
0003a0 43 c0 b0 63 6b ae a9 3f a7 85 da 5c 24 32 d0 bf
       0.0501588401024269 -0.2530604273580032
0003b0 a8 3f 02 9e 7a ee d0 bf a4 2f 27 de 79 c9 b5 3f
       -0.26455560141129775 0.08510553048762276
0003c0 66 21 4b a3 7c 1a 91 3f e5 a1 4f ee 7e 7c c8 3f
       0.016702601877825705 0.19129931103022027
0003d0 92 c6 f1 f9 31 12 a2 bf 3e b0 98 84 7d f1 ca bf
       -0.035295068512721475 -0.21049469923434744
0003e0 35 59 11 12 6f 0c d0 bf fe 17 a7 be d4 fe bc 3f
       -0.25075890316419996 0.11326341299636053
0003f0 c8 ec 21 c1 25 2f d2 3f 75 0d 74 1b 78 7a 8e 3f
       0.2841276536998518 0.014882028901871827
000400 07 29 f1 2a cb c0 bb bf 78 97 d1 9d 97 98 c2 bf
       -0.10841054724111042 -0.1452817459677893
000410 ca f9 83 aa d8 3a b9 3f f5 86 bc 6a 3e d1 98 bf
       0.09855417407013714 -0.024235701813387817
000420 22 dd b0 0f d2 3d b9 bf 99 97 2f be 0e 0e e9 bf
       -0.09859955676153168 -0.7829660143440719
000430 10 0d 13 95 21 45 c2 3f e5 94 ab fd e2 6b 9a bf
       0.1427347162153656 -0.02580218003540304
000440 df 95 c4 85 78 6f dd bf e3 85 62 82 8d bb c3 3f
       -0.45992863715431825 0.1541611563343813
000450 0f 79 63 6c 46 c7 ab bf f1 c6 cb b5 5f 55 a8 bf
       -0.05425472329237568 -0.047526350919623435
000460 2e 2f 67 73 71 2f c4 bf 04 32 80 6f d2 3d ca bf
       -0.15769785056033342 -0.20501165813801958
000470 c4 67 53 5f 73 e2 c5 bf a2 da ce 41 e4 e4 d9 bf
       -0.17097322611408405 -0.4045954363495331
000480 45 b7 e5 2f 18 12 9c 3f e0 14 5b 87 f5 61 bf 3f
       0.027412774966641313 0.12258848719200754
000490 47 a0 1e 0b 30 40 56 3f 2b b9 ff 74 87 18 b2 bf
       0.0013580769704990712 -0.07068678480547834
0004a0 ae 12 3b 23 d2 29 a7 3f a5 f6 ba 1b d7 85 d9 3f
       0.045240942764882205 0.39879396160163544
0004b0 c7 26 78 c2 6d 88 b5 3f 29 90 0b a5 82 0c bc 3f
       0.08411298749720252 0.1095658925001436
0004c0 09 f4 31 5b 1c 77 94 3f a2 38 05 82 a0 6d 8c bf
       0.019985621515378003 -0.013880971877963614
0004d0 c6 9b 6e 18 8b 5c d1 bf 4f 00 06 08 b4 8b 97 3f
       -0.27127339731162825 0.02299386309596257
0004e0 5f 30 d9 19 93 c5 cc 3f 60 e2 86 95 aa e0 98 bf
       0.22477949869278555 -0.024294534088513564
0004f0 4b 83 46 b4 78 17 d3 3f 8c 57 ea 74 2b de cb bf
       0.2983075867178299 -0.2177175827861756
000500 8c 6e ae 4a 07 e1 c7 3f 97 4e 58 df c9 ea c9 bf
       0.18655482431937676 -0.20247767835154626
000510 4a 26 7a 49 0d 2d c8 bf 1b a1 16 09 85 2d e3 bf
       -0.1888748749518519 -0.5993066003329973
000520 e2 0e 76 96 95 4b c3 3f ee af 0c a1 84 b7 c8 3f
       0.15074415060745766 0.1931005274176409
000530 13 03 c0 8c 35 f4 bd bf 32 1c dd b3 6e 1d b7 bf
       -0.11700758634834711 -0.0902928532715215
000540 e3 cf cb 0d 30 d9 c3 bf ef 52 90 23 8d 89 d2 bf
       -0.15506554292335215 -0.28964546654724094
000550 17 f4 20 b1 f3 6b af 3f 86 95 d5 b9 2a 7d b2 bf
       0.06137048279968143 -0.07222239529581573
000560 85 f9 17 a9 d1 1b db bf a7 fa 14 a8 27 89 ce bf
       -0.42357293618251673 -0.23856063563467453
000570 0e 23 29 9c 40 89 c8 3f 66 2b 10 f4 ba d0 bd bf
       0.19168861031564471 -0.11646622141431137
000580 59 cf a3 2f 8f 91 d9 3f 39 ed 17 b4 3e 3f c3 bf
       0.39950923588115966 -0.1503675822603812
000590 1c 18 50 9a 65 dd b8 bf 08 c1 8e 64 e4 c5 87 bf
       -0.09712824838069917 -0.01160791808965246
0005a0 50 2f 80 78 c2 10 a1 3f 8f 8d 83 b0 a3 1b c0 3f
       0.03333099099117354 0.1258434879192518
0005b0 af bf f9 54 07 17 9e 3f 31 ab c5 ac ba 23 85 bf
       0.029384722291467543 -0.010322054288470635
0005c0 b7 cf f5 f4 bb e0 c1 bf 20 50 60 26 a7 db c8 3f
       -0.1396708437056284 0.1942032754310512
0005d0 fd 49 85 71 6e ce c6 3f ed 97 20 a1 e6 ba cb bf
       0.17817478697777736 -0.2166412626986011
0005e0 79 cb 40 af 0a b4 b9 bf ff d9 d4 b7 15 ba c8 3f
       -0.10040346888199093 0.19317885852952085
0005f0 e4 4f 5f f4 07 03 ae bf 44 06 39 ad bc a6 b1 bf
       -0.0586168752485319 -0.06895045498915758
000600 31 a4 fc e2 45 b6 c0 bf bb 6f 65 31 67 d7 b6 3f
       -0.13056253035873192 0.08922429042780682
000610 b6 24 43 6f e9 53 99 bf d0 1a 4b 47 5a 32 98 bf
       -0.024734160819922045 -0.02362958011760946
000620 ab 67 af ff 61 a8 c2 3f 5f 35 c5 65 eb cc a8 bf
       0.14576363548877444 -0.04843841187776365
000630 a9 96 7b 03 73 df c5 bf c0 d8 4e 77 96 08 af 3f
       -0.1708816306119634 0.06061239439388677
000640 d6 d5 6e 8e 35 e9 92 3f 85 e3 94 d7 63 ca c4 bf
       0.018467747515122777 -0.16242645288891935
000650 ab be e2 ec 28 f7 96 3f bf e1 9b 61 f6 6d d5 3f
       0.022427215059620902 0.3348365739070935
000660 4b 95 a3 10 b8 a2 8a bf 05 0b d6 38 60 f7 d0 3f
       -0.013005674369604 0.265098624710092
000670 c2 8c 88 ef af 1e c7 bf 87 53 23 43 39 de 95 bf
       -0.18062400051085176 -0.021355528567102346
000680 26 73 39 07 47 83 cf 3f 68 32 67 1d 00 b9 bb 3f
       0.2461937699580627 0.1082916328225082
000690 69 72 ba e3 4c e6 b7 bf 01 06 b8 0b 5a 5c c5 bf
       -0.09335785445950652 -0.16688085148057044
0006a0 9d 09 88 70 4d 50 c0 3f 14 3b 53 c1 40 ef c1 3f
       0.12745063776681045 0.1401139205904306
0006b0 84 4d fe 72 e8 dc 83 3f 7f 67 e9 36 93 30 c7 3f
       0.009698692330664789 0.1811698930858334
0006c0 b0 fa 42 d2 0b 52 91 3f 7c 95 f1 6f 1c 61 c4 3f
       0.016914543827392492 0.1592135950660739
0006d0 b5 82 bc 7a c2 84 c9 3f 28 eb 18 18 48 4e cb bf
       0.19936400406824864 -0.21332646538379518
0006e0 53 58 4a 0f 13 b7 da 3f ae 3f 4c dd 2d 6d c0 3f
       0.41742397778705714 0.12833188348349495
0006f0 f9 66 7e ad 1e f9 b8 3f 3d 38 24 8b 99 2c 98 3f
       0.09755126701056928 0.023607634656450428
000700 f8 25 94 9f ca a4 c3 bf 8e 5d 34 23 50 b5 91 3f
       -0.15346653739861416 0.01729321684714829
000710 12 6e 2b 5a 67 0e cd bf 28 8d 53 6a 2e 64 99 3f
       -0.22700206663908823 0.02479622386898686
000720 3a ab 25 86 c4 ee af 3f 7a 67 bb a0 e6 03 ce bf
       0.062368527770408425 -0.2344940457176639
000730 e2 36 15 a2 dc ae ba bf 92 64 cc b4 08 52 9b bf
       -0.10423068005658423 -0.02668012240892332
000740 a8 78 10 7e ff a5 c2 bf 16 32 50 1e 84 7e 62 3f
       -0.1456908574627438 0.002257593196651318
000750 cd d1 0a f2 c8 08 c0 bf de f9 eb 36 71 22 b5 3f
       -0.1252680951926223 0.08255679694045834
000760 c5 fc 51 1d e1 79 aa 3f 94 28 c4 8f 8b 01 bb bf
       0.05171111567414636 -0.10549232730787345
000770 84 37 76 bd e6 1d ca 3f 2c 76 5f 97 3b 50 d0 3f
       0.2040375161272402 0.25489702017316307
000780 9a 2c d6 9d 52 17 b5 bf 92 9f a4 8f aa a5 c3 bf
       -0.08238712647851046 -0.1534932328588608
000790 28 9f ab 4e 0a 26 af bf 12 0d 65 fd ce 0a b7 bf
       -0.060837099173850995 -0.09000867544550697
0007a0 8d e9 78 15 cb 59 b2 3f e1 89 8d 09 05 03 81 bf
       0.07168263696886452 -0.008306540826826971
0007b0 98 c9 83 e5 7b c6 ab bf b8 e2 50 e0 7f a9 a3 3f
       -0.05424868752187989 0.0384025536845391
0007c0 20 2b d9 78 76 c0 c2 bf 95 fa c1 e8 7a af a7 bf
       -0.1464984979705486 -0.046260682022866075
0007d0 95 5b b4 f7 87 86 c4 3f ac e8 5f d1 15 d9 c2 3f
       0.16035556406924614 0.14724991534587184
0007e0 4f f3 ab 15 f1 9b 82 bf db f5 45 51 f9 a2 c0 bf
       -0.009086497758738736 -0.1299735686151696
0007f0 4a 57 e5 8e 95 cd c4 bf 1a 67 38 0f 99 de af bf
       -0.16252393224083966 -0.06224516211314164

bias_ih_l0 f8 [120]
000000 29 02 a9 3c 0f 4c b0 bf d7 4c ad c7 ba 83 aa bf
       -0.06366057616197253 -0.05178626716101469
000010 d5 4b 34 c7 71 5c bc bf 06 44 c3 c1 7e f5 d5 3f
       -0.11078559029947084 0.34310883447784624
000020 29 60 33 2a f4 0e a0 bf 62 e1 b1 9d ee ed 4d bf
       -0.031364088202906544 -0.000913373481480167
000030 7c 38 5f d7 3d 27 9a 3f 13 c1 d7 8c 0e 6c c2 3f
       0.025540319700489963 0.14392263295258853
000040 01 06 a3 f2 7a 18 83 3f 96 22 3c 19 f9 d2 74 3f
       0.009324036149680916 0.005084012070945795
000050 d5 3e e6 f8 30 f0 ce 3f f1 56 ec 7e 13 71 ca bf
       0.2417050566987117 -0.20657581040784792
000060 49 a5 6d 46 cc 97 bb 3f 3d 94 e8 3a 05 59 ba bf
       0.10778500289383887 -0.10292084396549313
000070 0f 87 0b 16 a0 73 d0 3f 9d f0 88 50 d8 0d c5 3f
       0.25705721047243996 0.16448501522416317
000080 5b ea 66 0b 4d 74 91 bf dd 07 7e 49 26 b1 a0 3f
       -0.01704521543590896 0.03260154387591261
000090 dc 62 66 fb 4d 98 dd 3f d9 ad fa b5 fb 05 ca bf
       0.46242093611503576 -0.20330759416297786
0000a0 76 30 e7 8b 10 e2 ca bf 40 44 8d d4 bd 2c b9 3f
       -0.21002394515233264 0.09833895148519023
0000b0 e7 de 1f 41 1e 07 85 bf a0 04 ad 85 1f a5 b5 3f
       -0.010267483103219855 0.08455082906313516
0000c0 c8 1f ac fe 1c 05 a7 3f cb d4 6b 51 d0 a1 d5 bf
       0.04496088608544785 -0.33800132705011937
0000d0 e7 b7 9f 72 6a 82 d4 bf 62 4e b2 be 68 88 30 bf
       -0.3204599494337103 -0.0002522712445138573
0000e0 dc 2c cd b4 53 a4 ac bf 9b 48 ed 1d be 24 c8 3f
       -0.055941215343944 0.18862129651330836
0000f0 21 3f c1 04 ec be c7 bf 5d 40 17 38 eb 42 50 3f
       -0.18551397545024265 0.0009925171910829735
000100 2f 00 13 d4 b3 30 bb bf 7a 65 10 7e da e5 c3 bf
       -0.1062118904837923 -0.15545207171889414
000110 80 88 f8 ff b9 39 cb bf 22 65 5a 2d 80 1f bc bf
       -0.21269917486739942 -0.10985566241506153
000120 48 31 c7 af 2d 5a b7 bf 21 c2 4e ab e4 ab b4 3f
       -0.09121976415116706 0.08074788267436663
000130 88 fc e4 45 51 4b c3 bf 58 2b 7a 8b d6 c9 cb bf
       -0.15073600685898136 -0.21709710894023249
000140 93 45 9e 38 cb 78 b1 bf 68 48 4f cd 4d f0 9d bf
       -0.06824941761285279 -0.029236999183759244
000150 0b 58 df 6d 96 4d a5 3f 40 45 45 18 a8 a3 bb bf
       0.04160757151809954 -0.10796595184844637
000160 6d df b8 d9 25 d3 b3 3f 46 96 07 3a ba 48 a9 bf
       0.07744061055643466 -0.04938299139375295
000170 12 b1 87 b9 77 37 c4 bf ea fb ce 2b b7 69 ba bf
       -0.15794273909649142 -0.10317559070152496
000180 d8 bf 29 54 bb a5 c5 bf 4f 43 11 52 d9 28 c9 bf
       -0.16912023171926083 -0.19655910975645915
000190 e5 54 d4 00 5b 03 b8 bf b1 95 f8 d8 91 34 b2 bf
       -0.09380120058297654 -0.07111465022224796
0001a0 39 38 bd c7 d1 12 b7 bf 3e fb 20 68 31 30 b8 bf
       -0.09013091207927539 -0.09448536674697736
0001b0 13 41 b0 fb 01 52 ae bf ac c1 83 a7 3c ca cf bf
       -0.059219419454281795 -0.24835928134372176
0001c0 e1 2d e4 9e 66 d0 d4 bf 47 15 c0 35 64 a2 9e bf
       -0.3252197791741463 -0.029916349201831307
0001d0 2f 06 34 5a 94 ff cc bf a9 4d c7 66 1b ac bc bf
       -0.22654966740087576 -0.11200114497414994
0001e0 4a cb 31 80 c1 27 91 bf 07 d7 aa 21 c6 12 98 3f
       -0.01675321907937225 0.02350911694039495
0001f0 4f dd cc 1e ef 8c a1 bf 90 43 99 26 07 51 c5 bf
       -0.0342783665750469 -0.1665352762670662
000200 87 f8 f8 ae 20 3d bd bf 7a 4f cf df c7 14 c3 3f
       -0.11421398422041494 0.1490716784306832
000210 4d ad e8 eb c8 3b bc bf 56 0f e1 ef 5c 3e a9 bf
       -0.1102872444104623 -0.04930391720020448
000220 69 ea 91 68 e5 70 a6 3f 42 ae 9f 31 c2 2d a6 bf
       0.043830079092875014 -0.043317860181414605
000230 11 2f d9 9a ca 25 c3 3f a8 a6 72 bf 47 29 58 bf
       0.14959080277400763 -0.0014746857321292026
000240 c1 59 f1 18 32 17 c1 bf c6 e6 f0 e3 08 6f b5 bf
       -0.13352037637623762 -0.08372550549475041
000250 e5 00 55 cf 75 cc 8f 3f 15 7b 8d e9 2e 8e b8 bf
       0.015526695623180273 -0.09591954423875067
000260 b5 e3 19 b0 44 02 c2 bf c6 7f 2e 6f 66 4c 84 3f
       -0.1406942233914187 0.009911346691126154
000270 5d b4 16 f7 5c 64 b6 3f e7 b0 65 54 aa db b2 bf
       0.08746892006338798 -0.07366432724456083
000280 20 3e 98 98 25 47 b3 bf 47 6b 9f 78 c6 9b ba bf
       -0.07530436492401593 -0.10393944210902105
000290 55 38 93 4a 9a 1e a8 bf 55 32 87 a1 9e 17 ad bf
       -0.04710848007526695 -0.05682082864550312
0002a0 5a cb 69 66 9e 1f a4 bf e2 fb 87 57 02 5a c0 3f
       -0.03930373191987853 0.1277468612097144
0002b0 a3 32 8c 52 34 85 9c bf e4 44 be 92 a8 45 b5 3f
       -0.02785188440161569 0.08309415419195748
0002c0 db 9c fb 7d bd 7d ae 3f 57 73 aa bb a0 40 b9 bf
       0.05955307162167297 -0.0986423929375183
0002d0 e9 b1 af d6 e1 cf c6 3f 7d e3 17 67 c4 21 b4 3f
       0.17821906073312668 0.07864024655272135
0002e0 f6 99 d5 e3 b8 8d b3 3f 19 f6 64 33 e1 e4 d3 3f
       0.07638125955927663 0.3108447076700443
0002f0 1a 83 1b b2 66 75 b2 3f 5a 10 70 1b 07 4a cd 3f
       0.07210389946295628 0.2288216480229746
000300 4e 78 36 c3 5f ac b5 bf c5 a4 29 e9 70 95 cd 3f
       -0.0846614696115193 0.23112307915588395
000310 13 5d 55 3c 17 56 d0 bf e5 93 1d 1d 00 e6 cc bf
       -0.2552545632547247 -0.22576905652672888
000320 35 f1 7f 28 3e 57 b6 3f 16 cd 6f c7 2a 14 70 3f
       0.08726871956600209 0.0039254828507069486
000330 de f9 2f c5 ea a1 81 3f 9b 11 d3 9f 04 e0 bc bf
       0.008609613554651337 -0.11279324438061737
000340 47 f3 7f c8 76 55 97 3f 8a 68 76 49 19 b2 c2 3f
       0.022786956775223712 0.1460601433471463
000350 e1 6f be 7a f3 3c b1 3f b4 e9 6e 2d 34 c0 ad bf
       0.06733628985097041 -0.05810702375989099
000360 d6 b9 ff 04 fe d9 c5 3f 53 c6 bf a2 ad 61 a9 3f
       0.1707150959404788 0.049573351017795496
000370 73 73 7a 90 68 73 c6 bf 99 b1 22 6e 11 86 c4 bf
       -0.17539698652845068 -0.16034143331252151
000380 da 76 13 b0 7b b1 ab 3f b3 1a c6 03 95 ff c1 3f
       0.0540884640156329 0.14061224636335154
000390 5c 7f 6b 12 82 ac 91 3f 18 0b d1 65 da 93 32 bf
       0.017259628652822698 -0.00028347093558893496
0003a0 ae aa ff 2a 50 01 c0 bf d0 36 49 29 b0 8a 9c bf
       -0.12504007434411818 -0.027872803230187426
0003b0 b0 88 15 c3 3f 11 c8 bf 39 e2 50 4f 23 ad ba bf
       -0.18802639985648772 -0.10420437513756377

bias_hh_l0 f8 [120]
000000 73 f0 b7 1a b9 85 85 3f 63 56 0a 67 c7 19 d0 3f
       0.010508962753185557 0.2515734201673238
000010 9e 2f d1 1c da a3 97 bf 9f 87 86 e3 c3 77 ce 3f
       -0.02308598328481503 0.23802994355815785
000020 11 b0 19 d5 41 ee b5 bf fa 4d 62 f1 53 e9 cf 3f
       -0.08566676571507538 0.24930810247734297
000030 a7 38 5f d7 94 d6 97 3f ea 81 af 59 37 ac b5 3f
       0.023279500622998352 0.08465906085576305
000040 36 9f ab e1 19 e5 b4 bf e5 3d 6c 2e 77 cc b1 bf
       -0.08162080535441593 -0.0695261467301332
000050 4c 1f 73 6c 12 ec d6 3f 0a 57 ec be c8 30 cd bf
       0.3581586894110742 -0.2280512745134547
000060 d7 d2 36 63 38 91 cb 3f a3 6b 17 45 d6 64 b7 3f
       0.21536927074853082 0.09138240038684713
000070 32 87 0b d6 75 7d d2 3f a0 f0 88 90 f0 54 cb 3f
       0.28890748884997486 0.21352965409630986
000080 66 ba d9 42 99 65 b5 bf fe f7 81 b6 86 1c a7 bf
       -0.08358152277080819 -0.045139512804766455
000090 d4 62 66 bb 9e 8c d4 3f 7f a4 0a 54 71 30 b2 3f
       0.32108276654029777 0.07105167676731304
0000a0 ed c0 9c af ed fe a4 bf 4e 89 1a a9 4b 07 ae 3f
       -0.041007449805307995 0.05864941062215455
0000b0 6d 10 70 df 9c 98 9a 3f f9 f6 a5 b4 83 3a a5 bf
       0.025972796571310065 -0.04146205501727524
0000c0 01 f8 54 80 97 99 c0 bf ec d4 6b 09 a0 29 d1 bf
       -0.12968724981504923 -0.26816559715309896
0000d0 a4 fa f6 53 60 b2 87 bf bd a6 a0 6b 6e ea c2 3f
       -0.011570694506074126 0.14777927642108138
0000e0 40 4b 33 ad 1f 7c cc bf cb dc 4a c8 a0 13 a8 bf
       -0.22253795582818192 -0.04702475018478366
0000f0 d3 02 fb 6c e9 1b a8 3f 0b a3 1f 53 54 41 bd bf
       0.04708795028046144 -0.11427809743294064
000100 39 00 13 14 1e 2c b3 bf c0 58 06 e1 8f ab 84 bf
       -0.07489192953198733 -0.010092853598319684
000110 88 88 f8 2f cf e9 c7 bf 25 9b a5 32 ec 63 bc 3f
       -0.186822794364222 0.11089969860550448
000120 44 31 c7 2f 78 ed b1 bf cb db 13 4b c5 4d 7c bf
       -0.07002974668939027 -0.006910105397074549
000130 e0 f8 c9 4b 8d c2 b7 bf a4 56 f4 f6 ca cd b4 bf
       -0.09281237697902922 -0.08126514939461998
000140 c0 45 9e d8 38 81 b8 bf 83 f4 d4 ac b7 5a d3 bf
       -0.09572177208453692 -0.30241195562468465
000150 e5 57 df 6d 33 75 a7 3f 3a 45 45 d8 48 2b bb bf
       0.04581604686943289 -0.10612921981853143
000160 6c 20 47 c6 96 55 b3 bf 69 1a 7e 91 50 aa c2 3f
       -0.07552473393218556 0.14582259277468104
000170 d0 9c f0 cc 10 a0 b8 3f 06 7e e7 45 6e 0a cc bf
       0.09619240764060355 -0.2190683213548114
000180 e3 7e 53 48 93 0e b8 bf 4c 43 11 82 e5 3b c7 bf
       -0.09397240176940218 -0.18151539660405047
000190 a9 aa 2b ff 2b 77 ba 3f 96 d4 0e ce 42 d9 a5 3f
       0.10338091830969155 0.042673194554859226
0001a0 04 9c de a3 25 19 c2 bf b3 f6 41 d0 f0 44 a2 bf
       -0.14139242650455242 -0.03568222562988179
0001b0 7a 20 d8 bd b4 8c b5 bf 9a c1 83 f7 50 4c cb bf
       -0.08417825350636746 -0.21326648793866526
0001c0 60 5b c8 7d a6 5e cc bf b6 fa 8f b2 ca f8 b5 3f
       -0.22163849965792348 0.08582751140054765
0001d0 33 06 34 9a 16 3e cd bf 52 b2 38 d9 9b 3d b6 3f
       -0.22845728425458986 0.08687757542856758
0001e0 c8 72 0c e0 20 3b b1 bf bc b5 6a 48 e8 c1 bb 3f
       -0.06730847806870621 0.10842754142750882
0001f0 da ba 99 3d 5a 28 96 bf a4 0f 65 1a 2f 8c a7 bf
       -0.021638307580753892 -0.045991394016282855
000200 ee e2 e3 bb 07 99 92 bf b8 10 16 06 f8 f9 75 bf
       -0.01816188892641695 -0.005365341990344934
000210 82 5a d1 97 0b b4 a2 bf d1 e1 3d 20 44 29 90 3f
       -0.03652988651508783 0.015782417743567315
000220 e5 0a b7 8b 62 50 b1 bf 7f 51 60 4e d1 64 ae 3f
       -0.06763282691012369 0.05936292726269964
000230 3f 5e b2 75 23 8d b7 3f 58 95 fb 7d 27 58 a4 bf
       0.09199735282378983 -0.03973506367564522
000240 d5 b3 e2 b1 b1 37 b2 bf a3 8c 07 3e 97 a2 c4 3f
       -0.07116232483777137 0.1612118771437042
000250 ff 9f ea 79 82 8b b6 3f bb 84 72 56 dc a1 ba 3f
       0.08806624866940636 0.10403229818850239
000260 5e 38 cc 9f 34 41 b5 3f 30 c0 68 c8 ef 39 9a bf
       0.08302620793640034 -0.025611635787015696
000270 de a5 74 c4 aa 87 ca bf 48 c3 96 51 61 48 99 bf
       -0.20726523010789227 -0.024690170864860833
000280 2d 3e 98 d8 79 02 b5 bf 76 a6 04 3b 18 a8 82 3f
       -0.08206903017002594 0.009109677601901494
000290 6f 9c 49 65 64 ef b2 bf 9e 33 9e d7 c7 f9 c3 3f
       -0.07396533463325893 0.15606020000668946
0002a0 94 34 96 19 43 3e a8 3f b0 07 f0 d0 8d 5c be bf
       0.04735002219522602 -0.11859976149574325
0002b0 a8 32 8c 52 94 d3 9f bf 2b bb 41 ed 25 69 bc bf
       -0.031080548799809066 -0.11097943346406385
0002c0 e8 18 81 20 f3 de c2 bf 0a e6 54 b7 30 b3 ad bf
       -0.14742888533709864 -0.05800773847517966
0002d0 fc 8f 7d b5 67 68 9a 3f 9e f1 8b 33 c8 e7 ca 3f
       0.025788898899364185 0.21019842640806713
0002e0 00 33 15 4e c4 2c cf bf e0 eb c9 46 71 c3 c2 3f
       -0.24355367481839352 0.1465894313476772
0002f0 74 f9 c8 9b 15 49 a8 bf 47 84 80 db 27 0f 90 3f
       -0.04743258978531886 0.01568281438096999
000300 31 0f 93 79 b5 13 ae 3f c2 a4 29 29 4f c8 cd 3f
       0.05874411686957471 0.23267545232673653
000310 6d 74 55 71 28 fc bd bf ee 93 1d dd cd 44 c2 bf
       -0.11712887541712443 -0.1427247361818042
000320 3a fc 1f 6a 4f 09 d9 3f a0 81 c4 d9 e9 53 ce bf
       0.39119325031055363 -0.23693583615478264
000330 cb 00 5a 67 e5 ab b8 bf 34 dd 59 40 fe 72 a3 3f
       -0.0963729264567547 0.03798670325789502
000340 19 0d 80 37 cc 61 98 bf b3 2e 13 4d 9f 3d b3 bf
       -0.023810568702185984 -0.07515903121673766
000350 e2 9b af be dc 80 d1 3f aa ba 5b ab d3 a5 cb bf
       0.27349012967755304 -0.2159981333456547
000360 d8 b9 ff 04 e9 53 c6 3f 27 e3 5f d1 54 24 b4 3f
       0.17443573707664828 0.07867937194522466
000370 85 9a d3 83 e5 ce 98 bf c4 b1 22 9e 79 f0 c2 bf
       -0.024226747675948807 -0.14796371671162778
000380 58 ee 26 60 25 08 91 3f 5a 6b 18 0f 17 41 ab 3f
       0.01663263701787651 0.053230972855280625
000390 da 6f 4d 42 9f 75 c0 3f 5b e8 32 8d 47 13 c4 bf
       0.12858954179216547 -0.15683836359477507
0003a0 95 aa ff 6a 3e 28 ce bf 5c 64 5b eb 29 a6 af 3f
       -0.23560314392610296 0.06181460378656631
0003b0 46 23 56 0c 72 e2 af bf b6 40 1c ea 05 b1 6d bf
       -0.06227451706496949 -0.0036244502561047732
