models/model/last.pt (torch, 100674 bytes, 12 tensors)

weight_ih_l0 f8 [120, 5]
000000 96 0f d6 c8 85 93 c3 bf 60 eb ac ea ac 3d 9f 3f
       -0.1529395323415172 0.030508710692838448
000010 37 f7 39 4a bf 68 74 bf d2 cd 11 47 6d d3 c6 bf
       -0.004982707239489951 -0.1783272358912727
000020 b0 cd 55 02 7a 29 d5 3f 19 6e c2 9f 3c 1b c6 3f
       0.33065653064769673 0.17270620156055896
000030 74 ec 4a dc 2f 2c b0 3f ec 6d 1d c2 b3 3c bb 3f
       0.0631742394279387 0.10639499177107553
000040 4d b7 2b 64 43 f1 b1 bf 5b 68 23 c7 54 60 c7 3f
       -0.0700876349980863 0.18262729381132456
000050 09 98 e5 4c 31 9e cf bf 09 7d 5d a4 d0 51 c1 3f
       -0.24701515440682467 0.13530929589885712
000060 fb f3 ff a7 cc 75 9e bf fa 14 7a 20 1e 0d c4 bf
       -0.029746244195838028 -0.15665031991753847
000070 97 2b 5d 14 f4 f0 8e 3f 83 cc 09 e7 50 79 ca 3f
       0.015108019706209492 0.20682727128187048
000080 75 78 97 cb 09 fd ca 3f 43 4f 5f 6f 2a c4 72 3f
       0.21084711495399558 0.004581609498888475
000090 d1 17 6d e6 20 ad b3 3f b5 4e d1 71 fa e7 cd 3f
       0.07686048150671289 0.2336419158697162
0000a0 0d 79 2e eb 20 38 c4 bf c5 15 98 13 95 1e c5 bf
       -0.15796290858720177 -0.1649957986520986
0000b0 e8 1c 81 64 cb 94 74 3f 0f 96 fa 49 f1 34 d5 bf
       0.005024713995289455 -0.3313563559007386
0000c0 01 e7 c0 14 38 bd 9f 3f a4 01 4b af b8 d0 d8 bf
       0.030995250956244117 -0.38773934477287697
0000d0 93 27 3d 80 09 9c c9 bf 5c 06 8d 1b ae 3c d1 bf
       -0.20007437478699028 -0.26932861986651857
0000e0 b1 78 19 fc f9 99 ce bf fe 85 b7 7a 84 1b d6 bf
       -0.23907398995919985 -0.3454295347601998
0000f0 06 5e 16 e7 48 fd 7c 3f 39 b3 4b 62 bc 59 b6 bf
       0.007077488685716121 -0.08730676078603218
000100 79 7f e8 d4 a9 a9 a3 3f a0 62 5b cb 5c 26 d2 3f
       0.03840380405404082 0.2835914598377176
000110 7e c0 9b dc 5b f6 cd bf e9 e7 02 58 73 46 c9 3f
       -0.23408077499289343 0.19746248052052742
000120 aa eb a3 83 e5 4a d2 3f b6 3b 6e 06 da 4f be bf
       0.28582132201671107 -0.11840593964573895
000130 29 53 68 51 63 f0 b2 bf 46 c9 e0 2f f4 bd d5 3f
       -0.07398052918899779 0.3397188632544793
000140 4b 54 26 6c d5 65 c6 bf 49 4d 15 34 56 88 bb bf
       -0.17498271733043888 -0.10754908343851811
000150 02 15 d8 5a ef 7d c7 bf 7f 36 7b ac 4a 09 ca bf
       -0.18353073058839448 -0.2034085600084161
000160 fc f6 ae 12 f1 4c 56 bf 37 54 a3 18 be b3 a8 3f
       -0.0013611177662222187 0.04824632693058855
000170 99 8f ea 15 5d 19 b8 bf 2e c5 6f 2d 0c 82 c4 bf
       -0.09413701806130205 -0.1602187368257914
000180 a7 59 39 59 bb fb a7 bf a5 91 fd 68 2a f7 b6 bf
       -0.046842436448673745 -0.0897089487385246
000190 f1 83 d5 df 15 c7 bc bf 70 0d 93 91 18 12 b1 bf
       -0.11241280283640244 -0.0666823726087864
0001a0 40 79 40 45 97 33 ae 3f 5f e0 d0 1c 32 46 a8 bf
       0.05898735733375071 -0.04741055108792191
0001b0 b2 da 5c 81 f5 24 d0 bf f1 05 92 03 80 2d d3 bf
       -0.2522557986552939 -0.29965210293457206
0001c0 be f1 6f c6 fb d7 c9 bf 36 70 85 59 6d cb d1 bf
       -0.20190379323311264 -0.278041207717027
0001d0 ab b5 77 83 a5 7e d4 bf 92 23 ed ad 57 26 d6 bf
       -0.32022989119181017 -0.3460902403353937
0001e0 37 01 eb 91 d3 86 96 3f b5 ac c8 d6 aa 81 ba 3f
       0.021998697072150377 0.10354106658694458
0001f0 3c 66 ef 4d 37 df b2 bf 40 36 63 fd d9 df 8d 3f
       -0.07371850636209215 0.014587119145654914
000200 81 21 ca 92 9c 99 d7 3f de ab 77 83 7f 01 a7 3f
       0.3687507089130336 0.04493330459430188
000210 f9 73 76 6e 94 9f 8a bf 68 64 46 e7 7f f6 c6 3f
       -0.012999686833433432 0.179397571494323
000220 51 d1 49 10 bf 50 d0 3f 4b 55 64 3d 42 01 ce 3f
       0.2549283656183166 0.23441341397907886
000230 36 a2 b6 e4 cf b7 d0 3f fe 50 db e9 df 3b cb 3f
       0.26121899924558833 0.21276472967895893
000240 96 1c 92 02 8c 01 90 bf cd 4e 3f 10 10 71 bb bf
       -0.01563090100947003 -0.10719395062124733
000250 de 56 ef 81 e3 1d d0 3f 95 06 5d 05 01 d5 ae bf
       0.25182426156002957 -0.06021884146185844
000260 c7 63 23 5d 51 bb cd 3f ae 4a 30 ea da 9e c9 3f
       0.23227898643270192 0.20016037402145542
000270 12 fd 59 c1 1c a3 c7 3f f8 d9 99 a7 f8 ee d0 3f
       0.1846652931307991 0.26458565108569543
000280 45 24 4f f4 84 6b d2 bf 91 40 68 6f 36 ff b1 bf
       -0.28781246050181536 -0.07030048580077365
000290 54 91 d6 cb c0 74 ce bf 08 6d 05 a2 e7 c7 a1 3f
       -0.23793802216563142 0.03472827770993986
0002a0 25 1c b7 e5 81 4a c6 bf bc 91 56 b8 7e df d2 bf
       -0.17414878574911188 -0.2948910522630077
0002b0 1c f6 57 1f f3 bd d2 bf 38 89 1c 88 25 f3 d1 bf
       -0.2928436094369731 -0.2804654912198603
0002c0 f8 fb 9c 3c 62 c6 d0 bf 0b 05 d9 65 84 f9 b8 3f
       -0.2621083824087118 0.09755733000294613
0002d0 8d 6e 66 12 3c 66 78 bf e6 f1 f4 8f 2b 51 d8 3f
       -0.005956873565448395 0.37995423372538395
0002e0 10 1b b3 aa cf 4c d1 3f e0 eb 9e 73 a2 bf 66 bf
       0.2703131834972945 -0.0027769253619829154
0002f0 b4 bc e4 6e f8 41 df 3f 87 f1 b8 c2 f3 97 db bf
       0.4884015162414912 -0.43114942565787157
000300 7c be cc ec 93 85 d9 bf ff 94 72 36 8d 29 cd bf
       -0.39877794384936016 -0.22783055456708465
000310 d2 e6 f8 32 7d 8e a5 bf 82 37 f3 85 b9 6c d1 bf
       -0.042102730247689416 -0.2722610290628539
000320 f6 25 4d 03 01 16 c2 bf 32 3b 31 a0 e0 72 c1 3f
       -0.14129650746535533 0.13631828138246643
000330 c1 6b b0 55 d7 94 b9 bf 0f 68 b3 62 02 14 b7 bf
       -0.0999273857309353 -0.09014906797111187
000340 72 7e 81 de 81 89 c3 3f 04 fc e0 78 98 b9 a5 bf
       0.15263388981383091 -0.042431607013433875
000350 f6 f1 14 ad a3 1f 92 bf f6 b8 b8 ab 4e f3 c9 3f
       -0.017698819579196688 0.20273764977304837
000360 7b f5 80 3e f5 59 c4 3f 35 a5 7d 3f aa 7c d8 3f
       0.15899529983463964 0.38260894966386455
000370 87 22 68 49 c5 a2 bb bf 8a 57 7b d2 70 e0 c1 3f
       -0.10795243303449285 0.13966188695365772
000380 94 ca 78 7e 11 97 bf 3f 79 b2 df d1 24 4d a4 bf
       0.12339886987391885 -0.03965106069504016
000390 06 3f 75 74 5b b2 cd 3f 10 c7 25 de 69 15 d1 3f
       0.23200553118157802 0.2669319791231013
0003a0 3e 8c 15 a0 c6 c1 ae 3f 05 ef ce 62 48 fc ae bf
       0.06007214264061432 -0.06051851469189099
0003b0 51 54 c9 00 26 ab b2 3f 0e ea e1 ae cf 83 c0 3f
       0.07292401808929695 0.12902256049331168
0003c0 f6 58 b7 37 3e c4 bd bf 6c fe bc 75 4d c0 be 3f
       -0.11627568111666506 0.1201218044707219
0003d0 f9 30 66 fd a5 df ce 3f 26 c6 32 61 57 00 b2 bf
       0.24120020745284146 -0.0703177082348466
0003e0 14 68 54 ea cf 41 ac 3f 54 40 87 cd fa 96 c8 bf
       0.05518960700483447 -0.19210753474772224
0003f0 63 b5 b0 56 0f 7c c2 bf e0 e2 20 5c ea 29 d5 bf
       -0.14441100819514494 -0.33068331715507604
000400 d9 f7 91 a8 9f ca d9 bf 5d 95 e2 e2 7b 4f c2 bf
       -0.40299216710979874 -0.14305065706609357
000410 db 70 5b 34 93 f8 c5 bf 75 0b 1a 7b c8 ac dc bf
       -0.17164840752128083 -0.44804584523824725
000420 02 df 1e 45 08 b8 c6 bf bf 25 8f 00 c0 db d9 bf
       -0.17749122023609948 -0.4040374761067049
000430 b1 18 6c b5 d5 2d cf bf c4 2a 4e ea cb b4 b4 3f
       -0.24358626707561862 0.08088373632760254
000440 9d bd 92 21 db 70 b7 3f ec 54 ee 10 d9 a5 a0 bf
       0.09156579560907692 -0.03251531917264025
000450 a0 4e e4 95 ae d6 b4 3f 23 4d bd d5 50 68 d4 3f
       0.08140078696697595 0.3188669287967107
000460 43 cf 0e b4 23 0f d3 bf 8b 21 64 0d 31 33 9f bf
       -0.29779903968595905 -0.030468717996912125
000470 74 bd e0 ba 53 7a d2 bf ac 0e ed 31 80 d2 c0 bf
       -0.28871625184816385 -0.13142397344392032
000480 5e 56 35 47 57 95 b6 bf 39 91 86 c7 c2 c5 c3 3f
       -0.08821626175389372 0.15447268240417047
000490 c4 a0 96 6a 82 55 90 bf a3 77 50 b8 4d a5 d8 3f
       -0.015951192622794222 0.385089330667933
0004a0 e6 1e 35 9d a5 69 cf 3f a6 cf 52 48 46 0c ca 3f
       0.24541158844134897 0.2034995892660138
0004b0 13 f0 80 8a 51 f8 b2 bf e2 23 bd bd 25 46 98 bf
       -0.07410153991162387 -0.02370509119581133
0004c0 ac 4f e6 d5 cd 61 b6 3f e2 4a 52 91 97 3d c6 bf
       0.08742987129363539 -0.17375464053892303
0004d0 2f 4e 57 e4 13 1f cc 3f c8 88 90 ff 5f e1 c7 3f
       0.21969841622795758 0.18656539896716695
0004e0 76 a8 c7 b7 20 6f c2 bf 90 5e 0d 44 e6 e2 c2 bf
       -0.14401635144833208 -0.14754942248213299
0004f0 38 1d 77 9a d1 f7 a8 3f 74 96 f4 33 86 6f b7 3f
       0.04876570711672418 0.09154547470515145
000500 eb 3a 95 56 51 df a3 bf dd 1b b6 c4 cd 57 89 3f
       -0.038813154048161845 0.012374503675131205
000510 02 14 75 d0 72 ec b1 3f 54 99 d4 11 33 6e bd bf
       0.07001416768351024 -0.1149627607852371
000520 f2 56 47 0b 1c 13 bc 3f 03 03 72 c0 c2 0e c1 bf
       0.1096665885482613 -0.1332629623102762
000530 6e 88 fb bb 09 1e aa bf 1a f5 7e 0a 48 2d bb bf
       -0.051010421940888104 -0.10615968948600987
000540 df d3 9c 24 2e 8e c7 bf b2 e9 bb 45 b1 d4 aa 3f
       -0.18402649677014346 0.05240396476979771
000550 2f 22 10 fe 06 94 d8 bf f9 4c d5 bf da c5 da bf
       -0.384034870251102 -0.4183260796900892
000560 d4 07 13 99 18 2e c7 bf ec 8d 6e dd 41 0e e0 bf
       -0.1810942408974926 -0.5017403912392502
000570 a0 c9 dc 85 c6 cb dd bf d0 cd 3d 8f bf 5b e5 bf
       -0.46556246826653513 -0.6674497411426561
000580 cf b3 46 a2 79 7b e6 bf 3b a1 41 11 e6 93 de bf
       -0.7025726479965843 -0.477777020313187
000590 dc f7 9b 17 85 b7 e5 bf 33 66 70 85 20 c8 ea bf
       -0.6786523305051975 -0.8369295698386793
0005a0 d4 e9 be d0 4c 64 c6 3f 05 14 33 ae f6 07 cb bf
       0.17493591492332305 -0.2111805296500792
0005b0 61 1e a7 2b 63 3a c6 3f fc 01 08 01 c0 06 9e 3f
       0.17365684157833797 0.02932262426657138
0005c0 2b e8 da 40 e1 50 d8 bf 13 b0 8e 90 c0 19 d3 3f
       -0.3799365170813213 0.2984467899029834
0005d0 39 16 54 b3 5d 2f d1 3f 26 2a 1c 92 a7 93 5e bf
       0.2685159922842533 -0.00186625828104304
0005e0 1a b2 c1 eb 78 22 c7 3f f6 24 75 93 2d 56 d8 3f
       0.18073951255372905 0.3802598896041468
0005f0 6d e6 84 a1 76 89 c5 bf 67 b5 f3 35 fe a8 b8 3f
       -0.16825755011250312 0.09632862870394875
000600 b3 99 8d 5f 82 54 a6 bf 63 41 c0 8b ea 4d d3 bf
       -0.043613504566383375 -0.30163062713201877
000610 a1 3e f0 7a a7 b0 ce bf 9a b1 3b 72 db cd b1 bf
       -0.2397660589490345 -0.06954738177200284
000620 7d 1d eb 5f 7b 38 c1 bf d1 5a 47 dc df ee c3 bf
       -0.13453619178310908 -0.15572736984059657
000630 6a 09 2d a2 73 e1 b6 bf 4d 13 61 85 40 2c b8 bf
       -0.08937761983273665 -0.09442523247078079
000640 33 2f 34 69 57 bf df bf d1 30 a3 7e b7 3a eb bf
       -0.4960535552388478 -0.8509175752056085
000650 0b 89 97 d0 95 fb e2 bf f0 88 f8 d9 83 a6 e3 bf
       -0.5932110857068279 -0.6140765435450515
000660 00 5f e7 57 c8 d4 e7 bf ba aa e8 dd 66 e6 c2 bf
       -0.7447244374152149 -0.1476563056506473
000670 e3 04 a9 15 09 e2 96 3f 64 90 18 b8 61 2b a0 bf
       0.022346631953273365 -0.031580976221705
000680 2a b1 19 4e f0 76 c0 bf 1f f4 d5 f7 c9 e4 89 3f
       -0.12862972081655616 0.012643411517951062
000690 e7 9c 63 f6 4a 93 b2 bf f8 e2 96 55 ca dd a3 bf
       -0.07256001010283662 -0.0388015012244462
0006a0 ff 46 6e 3d db 6d c3 bf f6 25 6d 79 52 ee cb bf
       -0.15179005145596844 -0.2182105152990485
0006b0 7f 15 1c 64 a8 d9 bc 3f 44 9f bd 79 c0 c1 b0 3f
       0.11269619411549135 0.06545641872582758
0006c0 64 c6 62 fc 32 c5 a8 3f bf c2 60 f6 5f 3d c1 3f
       0.04837951022035439 0.13468551187681574
0006d0 f9 d1 73 37 54 e6 a5 3f 8a bc 67 3d 35 ae a1 3f
       0.0427728955927797 0.03453222632003257
0006e0 ef 16 a5 23 b4 ec 69 3f 9f e9 90 48 05 57 b4 bf
       0.0031646269173134438 -0.07945282956726495
0006f0 76 d3 a2 21 7e 61 cf 3f 8c 90 6d 60 71 0b 93 bf
       0.24516274111160968 -0.01859833861398434
000700 d9 5c 8f 60 60 aa c0 3f c3 01 aa 17 b0 04 c6 3f
       0.13019947733730566 0.17201806216691126
000710 f6 63 f8 56 10 27 81 3f 5b bc 81 23 38 d3 a9 bf
       0.008375289587137385 -0.05043960030968072
000720 40 95 16 13 83 f1 c9 3f a0 9e 12 25 4a 7a df 3f
       0.20268286163369886 0.4918389665640266
000730 c1 57 61 20 3c 75 ba bf 09 11 cc 9e 70 4f d9 bf
       -0.10335136213811237 -0.3954736281159659
000740 2a d0 b3 af e4 8d d7 bf ca e7 19 ac 96 c5 9a bf
       -0.3680354801028921 -0.02614436555311509
000750 ca a7 b0 c3 01 09 db bf 5d aa 94 68 b8 12 da bf
       -0.42242473707539985 -0.4073925992294443
000760 15 90 08 5c 5d 69 a8 bf c6 42 9b cd 84 6b a2 3f
       -0.047678868755866834 0.03597655305714435
000770 28 a7 cf 5c 46 f7 94 bf 0e 16 9a 08 06 2e c1 bf
       -0.020474528708212564 -0.13421702785505868
000780 a9 20 b6 97 77 22 d0 bf ed 71 ae 10 18 e0 8a bf
       -0.2521037084156981 -0.013122737893177716
000790 0a ed 1b 85 de e3 cf bf de 54 08 f1 07 af c8 bf
       -0.24914151668040346 -0.19284152287642703
0007a0 57 e2 d3 93 25 9e 6f bf 89 1d 0d dc dd 99 da bf
       -0.003859589951954494 -0.4156412743509113
0007b0 aa 22 15 cf 8f 43 b6 bf 2f 0c cc b9 08 5c c6 bf
       -0.08696841054655616 -0.17468365738031497
0007c0 3a 18 9f 97 48 66 d3 bf 7d a6 a2 4b 86 1d c4 bf
       -0.303117893283687 -0.1571510190308806
0007d0 b4 e0 2a c0 68 4f af 3f 30 eb 15 69 f6 53 54 bf
       0.0611527189807374 -0.0012407213547180433
0007e0 90 20 8f d5 9b de b6 bf d2 b5 f9 be 64 60 a2 bf
       -0.08933423961491571 -0.035891674339704985
0007f0 7c 11 87 88 82 81 d7 3f bf c5 d3 13 a2 61 ba 3f
       0.36727965672277896 0.10305226310790426

weight_hh_l0 f8 [120, 30]
000000 9a 4e 50 3e 2d 65 b6 bf 16 f3 d4 76 1d 85 d3 bf
       -0.08748133441286612 -0.3049997005908137
000010 b5 a8 f2 29 58 4d 95 3f f8 f4 ca ec ff 4f cc 3f
       0.020802857933326552 0.22119139730595072
000020 d7 0a 2b a8 f9 cb b1 bf 4c 9f 19 7a e6 35 cd 3f
       -0.06951866489093149 0.22820740663450534
000030 7c fe 77 cb 4a 31 cf 3f 35 df 0f 89 09 86 97 bf
       0.24369177756306104 -0.022972249022102893
000040 92 84 7a a8 76 a2 bb 3f 8c 28 5d 9a 99 d0 c6 bf
       0.10794774640318597 -0.17824096715259363
000050 af fe 99 61 0e 8d c1 3f 80 33 eb c2 11 cd cc 3f
       0.1371171928949386 0.22500822083966554
000060 99 48 49 d1 fb 0f c2 3f 0f 27 4f 00 44 87 d6 bf
       0.14111278266006336 -0.3520059588450843
000070 20 b0 c0 ba 54 69 aa bf b0 41 e3 a8 9d 67 c6 3f
       -0.05158486156173603 0.17503710504980807
000080 70 93 37 60 d7 12 a8 bf ad 73 e6 41 30 88 bf 3f
       -0.047018747802019756 0.1231718216790358
000090 cb 09 72 9c dc c9 b7 bf a1 93 90 e9 2d 9d b4 bf
       -0.09292391604871068 -0.08052336647285908
0000a0 b5 07 bc 44 9d e6 b4 bf 5e 70 2e 17 1a 98 ad bf
       -0.08164389541710089 -0.057801070527802464
0000b0 f8 5b d8 df 82 12 b3 bf 91 54 36 72 0b f1 bf bf
       -0.07450120892495693 -0.12477180040726156
0000c0 f3 1a b9 01 70 ce 86 bf 3a 5c ae a9 9e 50 c3 3f
       -0.011135935833534094 0.15089782033166604
0000d0 72 1b 38 9e 92 b9 91 bf 86 c0 5b a1 59 79 aa bf
       -0.017309466273242653 -0.05170707792956457
0000e0 21 ef 6b ee e2 be c1 3f ef bd e8 be 3c 28 ca 3f
       0.13863789216690584 0.20435294458137274
0000f0 12 ff 84 1e 12 46 d7 3f ca 3e 28 34 d3 80 d1 bf
       0.36365178089543904 -0.27348785489537575
000100 17 03 e3 36 7a ec dd 3f 55 d6 31 84 a4 73 d0 3f
       0.4675584350589345 0.2570582667316093
000110 88 21 7e ea 4b c8 96 3f ed 7f 0c 1e 1f 93 d1 3f
       0.022248445689486057 0.27460458692985307
000120 19 f7 0d b6 5a 57 d5 3f d5 15 8e 8f 2f b1 cb 3f
       0.3334566858173829 0.2163447810127496
000130 87 35 c3 b8 05 cb dc 3f 4c 58 ed 55 5b 02 c4 bf
       0.4498915008851658 -0.15632192321453642
000140 4a 2a 5c 6f 23 c9 c6 3f 3e a3 45 bb 5a eb a0 3f
       0.17801325738430968 0.03304561172519137
000150 05 13 3e bd 02 33 aa 3f b5 ba 8c 64 69 fc dc bf
       0.05117043075646247 -0.4529059869700334
000160 53 67 74 6e a9 90 d5 bf 1e 26 48 8a 4d 1d d8 3f
       -0.33695445810882524 0.37678850654683227
000170 6e dc 8e b4 2c e1 c3 bf 25 f0 2a 25 36 9d d1 bf
       -0.1553092843657597 -0.2752204287496645
000180 dc 96 ec f8 eb c5 bd 3f 09 9f d6 96 28 95 c9 bf
       0.11630129649401105 -0.19986445775179387
000190 56 9a c5 f6 25 b2 cf bf 26 88 f7 7c bb 1d d5 bf
       -0.2476241545620776 -0.3299397201900568
0001a0 67 8c 01 e5 3b 01 d0 3f 6d ea 40 dc 71 b8 dd bf
       0.2500753151309198 -0.4643826151765669
0001b0 cf 8f 50 1a 99 f0 de 3f 40 a8 66 50 bb 86 db bf
       0.4834349400500714 -0.4300983700910628
0001c0 56 13 40 75 89 5f e1 3f b6 02 0b 68 58 43 c1 bf
       0.5429122247738671 -0.1348677166006575
0001d0 bf 54 f9 19 61 12 bf bf bb bc a6 ef 21 71 db 3f
       -0.12137419590119956 0.4287800636620422
0001e0 65 bc 7f 9b 6c 43 c1 bf 65 c8 fc 9a 29 71 a4 bf
       -0.1348701247474963 -0.03992586152016101
0001f0 43 5e 7f b9 85 5e b3 bf 4e 43 52 a6 03 d0 b9 3f
       -0.07566104677913991 0.10083029566363885
000200 06 cc a7 f3 da ef ad bf c1 55 49 4b 51 02 65 3f
       -0.0584705755644777 0.0025645816588546204
000210 b6 7f e7 42 45 f4 b4 3f b6 5b ac c3 34 86 bc bf
       0.08185227282910898 -0.11142282273463774
000220 f1 ab b0 f4 5f d9 a9 3f 27 cb ab 0e 0e ac a7 bf
       0.05048656331958757 -0.0462345497998256
000230 1d a4 cd 8d e8 74 cb 3f b1 12 fb 77 d4 d2 bf 3f
       0.21450526164997621 0.12431075982301355
000240 99 18 48 b5 3c 31 b1 3f 8e 62 2e c2 ba 7d a1 3f
       0.06715754915066653 0.03416236515403624
000250 ae 8c b4 5c 2e 86 c0 3f 71 85 41 1b 27 ef c1 bf
       0.12909488226532545 -0.1401108630262047
000260 9d ea ae d8 89 a0 dc bf 3e 69 31 38 90 07 c2 bf
       -0.4472984901473554 -0.14085581535148067
000270 33 4f 55 66 b8 f7 cb bf 1e ed bb f0 2d 8c b1 bf
       -0.2184973239587805 -0.06854521872803729
000280 9e e8 0a f5 b6 a6 c4 3f 61 b8 ff 60 60 82 d1 3f
       0.16133772816630637 0.2735825488333657
000290 ef 44 18 2a 18 f7 b0 bf a0 34 80 69 23 75 c4 3f
       -0.06627036121087192 0.159824778093399
0002a0 a2 eb 17 0c 82 9a a9 bf 4c 8e b4 59 08 47 c7 3f
       -0.05000692746758452 0.18185524349347515
0002b0 3c 54 03 96 c1 95 cb bf 86 7b 35 54 bd 22 c4 3f
       -0.2155076963887569 0.15731016742480736
0002c0 ee 3a 3f 56 68 e8 d0 3f b3 28 7e 52 77 95 cf 3f
       0.2641850321059981 0.24674884345978895
0002d0 b6 e1 36 5e bf 57 b7 3f d1 8e 6b ac 28 30 99 bf
       0.0911826710715847 -0.02459777405137126
0002e0 84 6b a0 e7 e4 3f d0 3f 24 c3 a4 33 7a fa cb bf
       0.2538997899989044 -0.21858146211300167
0002f0 77 37 9e 49 d5 b9 d7 bf a5 0e 63 66 0d cc e0 3f
       -0.37071735562573543 0.5249087333435979
000300 4f 46 92 d4 8f 2f c6 3f 0b 5e aa cd 1f 1b d5 3f
       0.1733264720865457 0.3297805317356228
000310 06 b9 13 f0 7b 51 c8 3f 07 12 f0 65 4d a2 d0 bf
       0.18998669836532417 -0.25990614848004195
000320 4f 75 40 71 92 e7 db 3f 30 e0 3e c8 6c e4 b6 bf
       0.43600903568024746 -0.08942298783119962
000330 b8 bd fb 93 da 2c 9e 3f 77 02 00 13 9a 26 c5 bf
       0.02946797874659321 -0.1652405350469228
000340 64 7b b9 43 a7 76 83 3f eb bb c3 e9 71 b8 bd 3f
       0.009503657106675063 0.11609565693991868
000350 c4 8b 96 e7 b1 97 d2 bf 8f 97 d9 a8 22 26 d8 bf
       -0.2905087243654487 -0.37732759942297717
000360 d9 14 0c 0c 7e 91 c2 bf a6 bb 82 48 62 e8 cc bf
       -0.14506507480851985 -0.2258417944007906
000370 93 f1 ed 20 a7 95 d5 bf 9d e1 4d d7 1c 31 c4 bf
       -0.3372590848519163 -0.15774879944707446
000380 0a 80 dd 92 af 6a c0 3f cb 49 7a 0a 45 b4 81 bf
       0.12825579329637576 -0.008644618398908307
000390 03 3f a2 bf d5 7d ce 3f dd 8b 67 10 3c db be 3f
       0.2382151780807292 0.12053275490283917
0003a0 03 e5 6e 5f 66 31 b8 3f 33 8e fa 6f 4e 2a d5 bf
       0.09450378255759877 -0.3307071774999912
0003b0 db 15 c0 7b b4 44 a2 bf 85 11 c1 27 09 21 d2 3f
       -0.035680427652589684 0.2832663429474212
0003c0 c5 ce 3e fe f5 2d b0 3f 7b 63 8d d5 92 99 c4 3f
       0.06320130784188922 0.16093669345243797
0003d0 6a 70 ea 0c 17 4e af 3f 45 cb ae 42 18 b3 c3 bf
       0.061142654730446847 -0.15390303855891765
0003e0 9a 45 e0 39 81 b2 d5 bf 11 e1 7f 36 c0 54 d3 3f
       -0.3390200677104872 0.3020477802488282
0003f0 1f 13 4c dc a4 ba d7 3f f1 1c f2 40 26 68 a1 bf
       0.3707668448771972 -0.0339977220801816
000400 af 25 0c 8d ec f4 75 bf 02 f9 5f ae ee 2d cf bf
       -0.005360530879224098 -0.24358924402617538
000410 f0 2b db 57 b2 bc c8 3f 4e 8e 33 57 ec be ba bf
       0.1932585648522429 -0.10447575692119779
000420 ea 70 cb 45 24 f6 b6 bf 9e 78 70 d9 42 0e ee bf
       -0.0896933241269299 -0.9392408606397742
000430 6f 2b b4 39 0d 78 be 3f c5 7c 43 76 09 33 9f bf
       0.11901934298309212 -0.03046812805484646
000440 6e 28 f0 39 40 ae e5 bf 3d 5e bd 03 7b d0 c4 3f
       -0.6775208598712774 0.1626123207340572
000450 75 1c 4b 8f ee 86 b1 bf 29 47 55 5c c3 4d c0 bf
       -0.06846514700292679 -0.12737314232304556
000460 0a 39 de 3c 2b 9d c7 bf 3e 80 78 7d 23 af c7 bf
       -0.18448391410897386 -0.18503230692386013
000470 df f5 53 1f 7e 9b bd bf 98 a2 2c c0 f3 d9 e0 bf
       -0.11565387978404072 -0.5266054871945753
000480 2c 3f 29 20 12 ca ab 3f f5 2f 29 ae 25 e5 a7 3f
       0.054276052881162634 0.04667012930858042
000490 e1 0f cd 91 79 92 b9 bf 74 1b cd 1e cc 58 b5 bf
       -0.09989127931208898 -0.08338618995649744
0004a0 89 16 94 16 50 d9 bd 3f b1 9a 4f 2e 7b a0 de 3f
       0.11659718085510397 0.47854499361566655
0004b0 8c 65 d3 25 95 e6 b7 3f 1d 47 c4 93 e7 22 c2 3f
       0.0933621613834445 0.14169020381137268
0004c0 8c 56 e9 ed fe 2a 6f 3f 31 a6 84 a9 d8 d4 a8 bf
       0.0038046816910462574 -0.048498888676771996
0004d0 ad 35 53 95 3e c7 d5 bf eb 68 93 0d c8 5f c2 3f
       -0.34028591711543293 0.14354801810151882
0004e0 6a a1 00 e1 f9 cd ca 3f e3 7f 68 90 e0 7c c2 bf
       0.2094108914036597 -0.14443594981366834
0004f0 a4 53 77 32 82 7f d1 3f 0a 64 4d a4 6d 6f d0 bf
       0.27340750625927 -0.2568010429873203
000500 85 12 85 9e 96 e9 d0 3f 08 4c 7d fd 33 ed d1 bf
       0.2642571018261964 -0.2801027274592234
000510 3a 79 3a 94 3c 17 cc bf 9b 41 1e 9d 6a 66 e3 bf
       -0.21945912587848132 -0.6062520092692013
000520 2b 76 c3 c4 b0 ea c9 3f 94 aa 52 e3 6b 49 c1 3f
       0.20247468574136582 0.13505314445258831
000530 a9 ac 3b 20 68 ec cd bf 6c d2 16 58 91 ed a0 bf
       -0.23377706121332167 -0.03306249809557901
000540 42 12 bc be 1d ce ca bf 0a 7b 16 0c bd 8a d4 bf
       -0.2094151669808913 -0.3209679239316051
000550 27 bb 33 f2 4c bd b9 3f 92 d2 d4 6b a7 de 8c bf
       0.10054474747788032 -0.014096553781749042
000560 3c 4b 54 4b e6 07 de bf 94 0b 23 87 1f 55 cb bf
       -0.4692321525227958 -0.21353525255662176
000570 bd 1d 7b dc 77 ff c2 3f fb b9 94 2a 53 91 c0 bf
       0.14842127099676175 -0.12943496302746368
000580 bf c5 c4 4f 1b 59 d3 3f b5 6f 47 8f 8a 7e b7 bf
       0.3023136404982231 -0.09177461622260703
000590 21 fb 85 c8 2c b7 c4 bf 33 b5 02 30 36 2b a5 bf
       -0.16184005538158266 -0.0413453038794195
0005a0 98 a3 c7 8f 84 24 9c 3f cd 87 2f 18 d3 df c1 bf
       0.02748305442392826 -0.13964308434429853
0005b0 d9 04 c9 a0 85 05 98 3f dc 51 4b a0 ab 5d b9 3f
       0.023458564699699067 0.099085547098475
0005c0 95 1c 50 fe 6f ab b8 bf 06 6d a1 1d fe 51 c1 3f
       -0.09636592825710218 0.13531471678548018
0005d0 7d c8 01 07 f1 18 c5 3f 88 c0 10 82 3f 8e c7 bf
       0.1648236545766543 -0.1840285668454309
0005e0 77 91 2a 7b 47 a6 ac bf b4 b8 7b 32 00 29 8e bf
       -0.0559561097955194 -0.014726640263202341
0005f0 2b 73 e1 07 37 a0 be bf f9 86 1f 44 ab ee b3 3f
       -0.11963218634032262 0.07786055005228922
000600 2b 8a f1 12 bc db a3 bf 24 1f 82 d3 63 27 b3 3f
       -0.03878581744426798 0.07481979287888102
000610 84 c9 66 b1 01 52 ba bf 3c 63 13 1c eb 75 9d 3f
       -0.10281382161227809 0.028770135487181422
000620 7d 8d 3f 86 36 f2 c6 3f 16 60 0b c3 dd 2c ca bf
       0.1792667537220999 -0.20449420951513336
000630 d7 32 0a 6b f8 e7 b9 bf 91 52 f8 f8 7f 3e bc 3f
       -0.10119583714749623 0.11032867267960912
000640 de 95 7e 37 7b 03 39 3f 28 f3 1c 34 d3 4f c2 bf
       0.00038167722913792594 -0.1430610660990166
000650 24 f1 d4 75 f4 02 c9 3f 79 38 d1 68 1a d3 d0 3f
       0.19540267709261017 0.2628847144704945
000660 07 b6 59 15 5d 30 b4 3f 8a 21 f8 9f a5 0c c7 3f
       0.07886297007799935 0.18007345496176824
000670 77 7c 01 df af 79 bf bf 63 14 b7 55 f6 66 c1 bf
       -0.12295054621198341 -0.13595465836820883
000680 97 3e bd 7a 2f 3e e2 3f 83 62 62 cb 01 c0 c8 3f
       0.5700909993410787 0.1933595889174918
000690 a3 07 f4 ed 22 50 bb bf 9b ed 0e b1 ae e3 cc bf
       -0.10669153508572875 -0.22569831509995883
0006a0 a8 df 6f 2e a7 ae c0 3f b4 56 3a 39 17 1c c3 3f
       0.1303299881690212 0.1492947606499705
0006b0 c3 74 a5 e5 6c c9 97 bf 51 70 bb 8c 0d d3 cb 3f
       -0.02322931434297427 0.21737832423866846
0006c0 5d 6b db cc 2b f1 c0 3f 69 61 19 df c7 67 c2 3f
       0.13235995772159984 0.14379213708412955
0006d0 bb c9 b5 f3 25 45 ce 3f 5e 55 5b 47 60 8e cb bf
       0.23648523712070166 -0.21528247341363288
0006e0 99 d2 9b 27 ae 5a dc 3f 56 da 19 62 43 b3 c2 3f
       0.44303468578372357 0.14609567918860716
0006f0 10 09 3f bb 45 bc b3 3f 74 57 ba 44 cd 75 88 3f
       0.07709155866090023 0.011943439159306492
000700 b3 b9 a4 8a ee cf c4 bf 03 50 c6 27 9a 5d 56 bf
       -0.16259557504367947 -0.0013650899337323003
000710 4d e5 a2 e4 b3 40 d0 bf 45 fc e1 96 f3 65 95 3f
       -0.2539491398598173 0.020896726688530504
000720 85 eb 7a 16 1d ab a8 3f 5d 5e 60 0e fd f9 d1 bf
       0.04818049334922762 -0.2808830871958657
000730 56 0b 2c 4b c5 98 c0 bf 1f 8c 72 58 74 38 a9 bf
       -0.12966219110975413 -0.049258838459785396
000740 02 ff 89 ec f6 8d c0 bf 27 af 8a ff fb 24 9e bf
       -0.12933241414793178 -0.029437959167508822
000750 d0 e1 94 6e f3 c2 be bf ce df b7 b3 7a 0d b5 3f
       -0.12016221475358368 0.08223692786839296
000760 e0 13 8a d5 d8 18 93 3f 91 38 97 0f 5a ef bd bf
       0.018649471314819865 -0.1169334686339616
000770 88 e1 e0 0f ad d5 d3 3f 00 3a fd 64 39 a9 d5 3f
       0.30991674948338543 0.3384536253187491
000780 08 7a 03 b2 7e 33 c3 bf b3 a7 3f 84 00 c8 d0 bf
       -0.1500089997488916 -0.26220715441615566
000790 c0 f1 c1 8b 64 dc b8 bf 62 31 2a e1 f1 ab 97 bf
       -0.09711292659807835 -0.023116855018586853
0007a0 05 c5 4e 8d 8d da 84 3f 9f b7 6c ae 30 c9 77 3f
       0.010182481646412453 0.0058071042647450935
0007b0 d7 f5 55 cb fd 1e bc 3f 3c 2d f4 ec 2d 22 a3 bf
       0.10984789098980428 -0.0373701431036246
0007c0 07 31 39 e1 c0 4f ba bf 73 ad aa e1 1a fc bb bf
       -0.10277944086664458 -0.1093155671066393
0007d0 33 a2 73 ab 15 65 c8 3f 5a 10 38 33 c4 e2 ca 3f
       0.19058485862412197 0.2100453615277072
0007e0 7f 5c 9e 0e 4a 55 8c bf 74 55 5f 6a 31 e4 be bf
       -0.013834551402210458 -0.12066944930059781
0007f0 81 59 0a 88 49 8a c3 bf 16 64 9c 45 86 3a c8 bf
       -0.15265769140814814 -0.18928602599115213

bias_ih_l0 f8 [120]
000000 25 01 7c 98 53 79 bc bf 92 55 4b 18 a3 e9 a7 bf
       -0.1112262961651181 -0.04670438453255622
000010 58 87 8b f3 b6 72 d3 bf 07 cd 41 1b db 41 d7 3f
       -0.3038766268128845 0.363394524210165
000020 8a 87 a0 ee 8d ac 8d 3f 0e de 10 db 3e a6 83 bf
       0.01448927769166965 -0.009594431934700356
000030 5a f8 a2 59 f8 0d aa 3f f7 8d 53 71 e2 5e c1 3f
       0.05088783353993227 0.13570814641489878
000040 98 1b 3d 65 d7 06 c6 bf a7 19 24 8c b6 8b c2 bf
       -0.17208378260894786 -0.14488870470831935
000050 5a f8 4a a0 18 de d2 3f 26 4b 0e e2 79 83 e0 bf
       0.2948056760177501 -0.5160493292954456
000060 7a ba a7 ee 87 d0 ba 3f 1c dd e0 48 31 c3 bb bf
       0.10474443031828598 -0.10844715146310019
000070 50 96 a4 fb 65 7e d0 3f de c4 41 ec ff 77 c2 3f
       0.2577147443247201 0.1442871001814074
000080 15 3e e9 fd ea df 57 3f 92 1e 6d 5f ce ce c0 bf
       0.001457194790095322 -0.13131122264370682
000090 be e7 60 d4 be 6d de 3f e3 4b f9 2f f6 be cf bf
       0.47544832935420434 -0.24801518766852756
0000a0 22 22 04 db a2 67 d1 bf 2d 24 10 8b 56 40 a1 3f
       -0.27195044887824527 0.033693985438795294
0000b0 1f 61 72 ab 13 07 a5 bf 9e 6c 75 ce 37 0a 88 3f
       -0.04106961696487787 0.011738239276999626
0000c0 f5 0c db ef 7e 54 8d bf 6f 2d 1d 6e f9 a2 e4 bf
       -0.014321319289030113 -0.6448943281806531
0000d0 d1 3c 24 63 3f 13 e0 bf f3 e2 91 f8 28 9a a2 bf
       -0.5023495613439996 -0.03633239778804933
0000e0 cd ca 11 1c 45 51 bd bf 5c aa 1c e5 45 e8 b9 3f
       -0.11452133116999193 0.10120045512727799
0000f0 9b 05 aa f2 32 af d0 bf 16 1f e2 33 3d 78 80 3f
       -0.2606932992713042 0.008041837831356296
000100 5b 98 4d a6 56 ab d3 bf 54 3b 86 dc 2d 42 c3 bf
       -0.3073326705983896 -0.15045712726392912
000110 a3 18 fd 38 74 06 ce bf 28 d9 42 c8 d7 df bf bf
       -0.23457196028374935 -0.12450932158649108
000120 de a8 33 fa 80 a6 a9 bf 41 83 e5 8d 38 d8 b1 3f
       -0.050098448316775665 0.06970551933546877
000130 92 1c f7 24 43 c2 d6 bf c0 c3 26 07 aa c0 d2 bf
       -0.35560682878389926 -0.29300928781873026
000140 4d 4c cb 2e e8 d9 b1 bf a9 2c cd 2a f3 14 cb bf
       -0.0697312463992585 -0.21157683935084506
000150 77 7e da 8a c7 72 93 3f fb ea 3d cc 0f 4d bc bf
       0.018992536401695816 -0.11055086838124943
000160 80 80 4a 46 ed e9 b2 3f d9 c3 c3 22 44 13 b1 bf
       0.07388194051827845 -0.06670022820232137
000170 46 75 cb fa 91 48 c2 bf 9a 52 ff 2f 65 9c cf bf
       -0.14283966775739482 -0.24696030467625435
000180 a7 3d d8 ea 44 c5 c4 bf 38 6d 63 d2 68 b1 c7 bf
       -0.16227017848039546 -0.1851016070639646
000190 82 5c 0c 4f 91 39 c2 bf 9c 91 23 20 25 2a c9 bf
       -0.14238182410983674 -0.19659866399082382
0001a0 23 2d 2b a4 81 fb ba bf 1f 85 95 74 8c fc c1 bf
       -0.10540018327735771 -0.14051967327672174
0001b0 65 c3 4c 30 48 c5 bc bf 3b 4a 1e 05 2f 82 e0 bf
       -0.112385284225423 -0.5158915615050498
0001c0 69 be 54 b0 ea d3 df bf 3e bd 97 06 0c d2 af bf
       -0.497309372137329 -0.062149406246926095
0001d0 9a c2 86 6e 10 ed cc bf 30 97 d1 e8 57 ce c3 bf
       -0.22598462483212672 -0.1547346007166026
0001e0 73 82 63 dd 2c 5f 97 bf 72 0a 8a c2 bf 14 9f 3f
       -0.022824002277845822 0.030352588890773587
0001f0 bb 03 34 c9 db a8 9b bf b9 2b 50 ff 8b 9b c5 bf
       -0.02701133170649304 -0.16880941359008064
000200 d4 ad bc 1a 2f ca bd bf f3 be 33 e4 32 4e c0 3f
       -0.11636633303412874 0.12738643782312628
000210 b8 88 f3 ff 50 63 bc bf cf f0 c5 fb 9f 0b b3 bf
       -0.1108904480820766 -0.07439613243872432
000220 0c be 0d 3e 7c ef a3 3f 35 bf 96 6b 89 ae a4 bf
       0.038936503004944084 -0.040394110091595804
000230 3d 8f 67 50 24 8d c0 3f 18 7b 26 a9 61 e0 45 bf
       0.1293073074913255 -0.0006676174983118758
000240 23 ee b4 41 4d 3e c1 bf f9 c5 9f 88 d9 85 b1 bf
       -0.13471379955613924 -0.0684486349635093
000250 d3 00 f6 f0 84 78 a1 3f 80 fd 90 d9 37 67 bd bf
       0.03412261430185173 -0.11485623418501767
000260 81 31 06 2f 40 96 bf bf 77 26 5f b6 8b cb 9a 3f
       -0.12338639400531372 0.02616709042175677
000270 b6 98 c6 89 ca 67 b4 3f db 0a 64 c3 f0 0b a1 bf
       0.0797087274901028 -0.03329422364369857
000280 f4 ec d7 5d 44 aa 90 bf 0f 27 f0 4f c6 1c a2 bf
       -0.016274517276525693 -0.035375783212726934
000290 ff 5b be 99 45 64 a9 bf 87 0b b6 22 c1 c1 ad bf
       -0.049593138711479405 -0.05811885403365751
0002a0 48 02 01 6b 0a 0e b5 bf 1b b3 b3 82 97 33 bf 3f
       -0.08224549400711922 0.12188097897496812
0002b0 c4 48 f3 9f d7 0c 95 bf 65 b9 31 fa ee b5 bf 3f
       -0.020556801927178694 0.12386983497865385
0002c0 cf 56 91 6f 22 a4 aa 3f 93 af 62 89 8a 1e b9 bf
       0.05203349697027947 -0.09812227110040643
0002d0 bd 88 3c aa 5b 48 c0 3f 77 d9 fe 16 9b 5d b6 3f
       0.1272081929428789 0.08736581145681109
0002e0 23 79 66 fb 3c 00 bf bf a9 b5 3b d3 d5 44 d5 3f
       -0.1210973848123769 0.3323263705086342
0002f0 4c 7c 55 a6 60 88 b9 3f 7f 3e 9a a6 09 38 ca 3f
       0.09973720608603392 0.20483513483894808
000300 b8 99 b5 e3 db 7d af bf db bf 92 98 6a 4c cc 3f
       -0.06150710253386954 0.22108204316964372
000310 5c b4 13 e1 ae a6 dc bf 0d 6f 8e 39 c2 57 d8 bf
       -0.4476735303895276 -0.3803563654016536
000320 8a 1c 67 a5 d8 38 c3 3f e8 8d 23 fc 1e ae d3 bf
       0.15017231060321407 -0.3075025045675077
000330 24 f0 09 bd 41 d7 79 3f 9c 7f 39 bc ac ab bf bf
       0.006308800497773635 -0.12371329875304443
000340 32 f0 6c 2f 56 b6 94 3f fa 08 0a eb ab bf be 3f
       0.020226809162736177 0.12011217582952219
000350 f5 1d 80 13 f0 6a b5 3f d2 73 55 ad 82 2c cc bf
       0.08366299129567507 -0.22010835135998136
000360 5a f3 94 5a 29 b5 c9 3f cf de e1 37 59 a7 84 3f
       0.200841111401952 0.010084816949741974
000370 d6 03 da 1f 97 0e cf bf d6 c8 86 57 d0 24 cc bf
       -0.24263276152853902 -0.21987346910243016
000380 78 34 86 90 56 b3 93 3f c3 d8 dc f8 fd cb b2 3f
       0.01923880822282739 0.07342517209767423
000390 34 c4 5a 5a 60 71 ab bf 10 8a 87 2d 86 ec d3 bf
       -0.05359936812363522 -0.3113112873672046
0003a0 a6 92 4f 08 0b 9f d3 bf 91 ba 97 67 03 18 b1 bf
       -0.30658222018818504 -0.06677266387098714
0003b0 c3 3e 43 86 fc 8c cf bf 31 1d 8d d4 8f a9 c8 bf
       -0.24649006419939753 -0.1926746166084086

bias_hh_l0 f8 [120]
000000 09 02 f8 70 1a f9 a2 bf 33 95 f6 5c 0a 6d d0 3f
       -0.03705675724996033 0.2566553027957809
000010 6b 0e 17 47 b0 ab cb bf fa cc 41 4b 3e 88 d0 3f
       -0.21617701979822654 0.2583156332904789
000020 b3 dd 57 04 6c 62 a4 bf a4 f1 4e f2 dd cc ce 3f
       -0.039813399820498495 0.24062704402412038
000030 67 f8 a2 d9 a3 e5 a8 3f 58 1b a7 22 df 91 b3 3f
       0.0486270144624406 0.07644457431807206
000040 db 8d 9e 02 76 d5 d0 bf 99 19 24 ec 89 18 cc bf
       -0.2630286241130457 -0.21949886350939776
000050 57 f8 4a 90 12 52 da 3f 3b 4b 0e 32 67 33 e1 bf
       0.4112593087301141 -0.537524793401054
000060 61 dd 53 37 96 2d cb 3f df 22 1f 37 aa fa b5 3f
       0.21232869817297753 0.08585609288924044
000070 70 96 a4 bb 3b 88 d2 3f de c4 41 2c 18 bf c8 3f
       0.2895650227022548 0.193331739053554
000080 82 5b 08 54 06 a9 b0 bf a2 1e 6d 9f 39 c2 ca bf
       -0.06507911254480628 -0.20905227932438658
000090 b6 e7 60 94 0f 62 d5 3f 41 9e 35 80 f1 f9 9a 3f
       0.33411015977946634 0.0263440832617603
0000a0 e7 87 10 2c e1 59 ba bf 35 de 7e a7 cb 8e 78 bf
       -0.10293395353122002 -0.005995555424241729
0000b0 4d 09 93 5b ed c7 73 bf d1 52 31 66 1a 41 bd bf
       -0.004829337290347913 -0.11427464480341178
0000c0 ef b0 fd ae 26 30 c8 bf 85 2d 1d 4a e1 66 e2 bf
       -0.18896945518952843 -0.5750585982836333
0000d0 63 f2 90 ac 4e c3 c8 bf 8f 0e b7 c3 50 98 bc 3f
       -0.1934603064163581 0.1116991498775468
0000e0 d4 72 04 a7 d6 fd d1 bf 4e aa 71 5d 83 35 c1 bf
       -0.2811180716542314 -0.13444559157081176
0000f0 a8 59 a0 2a fc c3 9c bf a6 bb 83 59 58 73 bb bf
       -0.028091373540598902 -0.10722877679266549
000100 56 98 4d 36 31 aa d1 bf bc 6b c7 90 8b e1 74 bf
       -0.2760127096465842 -0.0050979091433544475
000110 97 18 fd 68 89 b6 ca bf bc 27 bd 97 94 a3 b8 3f
       -0.20869557978057138 0.09624603943407711
000120 e4 50 67 f4 2b 9a 9d bf f6 f2 69 c8 21 62 92 bf
       -0.028908430854998182 -0.017952468735972858
000130 7b 1c f7 d4 3d 0d d3 bf d4 87 4d fe 62 1e c4 bf
       -0.2976831989039465 -0.15717732827312025
000140 74 4c cb ce 55 e2 b8 bf 19 96 66 65 2c 06 df bf
       -0.09720360087094254 -0.48475179579176736
000150 43 7e da 8a 01 c2 97 3f e6 ea 3d 8c b0 d4 bb bf
       0.023201011753029254 -0.10871413635133428
000160 55 7f b5 59 cf 3e b4 bf 37 1e 9e 0e dd 72 c0 3f
       -0.0790834039703417 0.12850535596611376
000170 1d 14 69 4a dc 7d bc 3f 35 a9 ff ef fb 38 d7 bf
       0.11129547897969912 -0.362853035329539
000180 5b 7b b0 75 a6 4d b6 bf 34 6d 63 02 75 c4 c5 bf
       -0.08712234853053984 -0.1700578939115559
000190 29 8e ce c3 c8 0e ac 3f 62 23 47 00 17 33 b5 bf
       0.05480029478283328 -0.08281081921371716
0001a0 67 96 15 92 7d 0d c4 bf ff 09 2b e9 5f eb b4 bf
       -0.15666169770263424 -0.08171653215962492
0001b0 cc 61 26 f8 7d 94 c1 bf 5b 94 3c 32 68 c5 de bf
       -0.13734411827750959 -0.4807987680999923
0001c0 ba be 54 50 d7 32 d9 bf e9 42 68 79 bb 70 ab 3f
       -0.3937280926211134 0.05359445435545302
0001d0 b3 c2 86 ae 92 2b cd bf b5 a2 b9 dc 0e 9a a6 3f
       -0.2278922416858414 0.044144119686114015
0001e0 91 e0 58 b7 fb c8 b2 bf d2 82 a2 b0 66 82 bd 3f
       -0.07337926126717977 0.11527101337788828
0001f0 3c 08 68 92 af 6e 8d bf 38 b0 40 7d 42 b6 a8 bf
       -0.014371272712200171 -0.048265531339297174
000200 f8 b6 f2 6a 41 cd 94 bf b6 08 62 de 25 b3 9b bf
       -0.02031423774012972 -0.027050582597902127
000210 bc 10 e7 bf 1b 03 a3 bf c2 89 2f de 03 11 83 bf
       -0.03713309018670105 -0.009309797494954423
000220 58 21 f9 20 17 91 b2 bf a5 40 69 14 0a e4 af 3f
       -0.07252640299805557 0.06228667735251862
000230 a2 1e cf e0 d6 5b b2 3f 4b 9a a4 c6 5e ee a3 bf
       0.07171385754110784 -0.03892799544182831
000240 d5 dc 69 03 e8 85 b2 bf f1 1c b0 eb 2e 97 c6 3f
       -0.07235574801767382 0.17648874767494463
000250 c9 00 7b 38 36 4e bb 3f 51 02 6f 66 d3 c8 b5 3f
       0.10666216734807955 0.0850956082422354
000260 e3 cd f9 d0 7d af b9 3f 61 b3 41 93 2e 29 83 bf
       0.10033403732250394 -0.009355892056385153
000270 02 b3 1c fb f3 85 cb bf f1 ea 37 79 66 0e 90 3f
       -0.21502542268117258 0.015679932736001715
000280 3b ed d7 5d 95 97 97 bf aa ec 07 58 66 e2 b3 3f
       -0.023039182522535766 0.077673336498196
000290 12 2e df 0c 3a 92 b3 bf 1c 7d 52 37 3f cf c3 3f
       -0.07644999326947069 0.1547621746185336
0002a0 f7 d8 ef 4f 65 0e 72 3f 4a 4c 4c fd fa dc bf bf
       0.004408260107984888 -0.12446564373048932
0002b0 98 48 f3 9f 37 5b 98 bf ab 46 ce 85 df f8 b1 bf
       -0.0237854663253719 -0.07020375267736749
0002c0 63 aa 1b e4 59 d5 c3 bf 12 5e c5 52 04 6f ad bf
       -0.1549484599884919 -0.05748761663806702
0002d0 8e b6 1b ae c9 d3 99 bf 83 6c 7f 8b b3 05 cc 3f
       -0.025221968890881068 0.2189239913121562
0002e0 5f 9e d9 9e df 39 dc bf f3 6a 77 86 5a 83 c5 3f
       -0.4410323191900484 0.16807109418626673
0002f0 c5 0d aa 66 43 46 94 bf d3 14 5c 96 87 01 81 bf
       -0.019799283162240906 -0.008303698803056403
000300 03 33 25 8e 4c f7 b4 3f df bf 92 d8 48 7f cc 3f
       0.08189848394722436 0.2226344163404965
000310 c1 b4 13 c1 a1 cf d3 bf df 6e 8e 19 29 07 d3 bf
       -0.3095478425519325 -0.2973120450567261
000320 57 8e b3 32 ec 0f dd 3f 9c c6 11 4a 32 8c e1 bf
       0.4540968413477677 -0.5483638235729873
000330 e8 60 2f a4 ae 42 b9 bf 66 02 1a 0f 5c b7 9b 3f
       -0.09867373951363201 0.02706664888546797
000340 31 10 93 d0 ec 00 9b bf 4e f7 f5 f4 25 e2 b9 bf
       -0.02637071631467353 -0.10110699873436355
000350 3e 07 e0 e4 5b 8c d2 3f 48 ba aa a6 24 31 d8 bf
       0.2898168311222554 -0.37799946094574866
000360 5e f3 94 5a 14 2f ca 3f a0 77 f8 4d d2 10 a4 3f
       0.20456175253812153 0.039190837877171036
000370 e1 07 b4 7f 16 6a b7 bf 07 c9 86 87 38 8f ca bf
       -0.09146252267603884 -0.2074957525015366
000380 cc ca 79 6f 7b a7 92 bf f6 38 19 39 04 95 8c bf
       -0.018217018774928914 -0.013956101410397253
000390 ae 3b a5 a5 db 8e ad 3f 30 8a 87 fd 84 f1 dd bf
       0.05773054501570783 -0.4678661800263937
0003a0 82 92 4f 28 82 b2 da bf b1 16 a1 61 f6 76 97 3f
       -0.4171452897701685 0.02291474314576786
0003b0 a8 7d 86 8c b2 e8 be bf a2 3a 1a 89 84 93 b7 bf
       -0.12073818140787884 -0.0920946917269512
